Xception Model Summary
----------

Model: "inception_resnet_v2"
__________________________________________________________________________________________________
Layer (type)                    Output Shape         Param #     Connected to                     
==================================================================================================
input_12 (InputLayer)           [(None, 224, 224, 3) 0                                            
__________________________________________________________________________________________________
conv2d_376 (Conv2D)             (None, 111, 111, 32) 864         input_12[0][0]                   
__________________________________________________________________________________________________
batch_normalization_376 (BatchN (None, 111, 111, 32) 96          conv2d_376[0][0]                 
__________________________________________________________________________________________________
activation_376 (Activation)     (None, 111, 111, 32) 0           batch_normalization_376[0][0]    
__________________________________________________________________________________________________
conv2d_377 (Conv2D)             (None, 109, 109, 32) 9216        activation_376[0][0]             
__________________________________________________________________________________________________
batch_normalization_377 (BatchN (None, 109, 109, 32) 96          conv2d_377[0][0]                 
__________________________________________________________________________________________________
activation_377 (Activation)     (None, 109, 109, 32) 0           batch_normalization_377[0][0]    
__________________________________________________________________________________________________
conv2d_378 (Conv2D)             (None, 109, 109, 64) 18432       activation_377[0][0]             
__________________________________________________________________________________________________
batch_normalization_378 (BatchN (None, 109, 109, 64) 192         conv2d_378[0][0]                 
__________________________________________________________________________________________________
activation_378 (Activation)     (None, 109, 109, 64) 0           batch_normalization_378[0][0]    
__________________________________________________________________________________________________
max_pooling2d_22 (MaxPooling2D) (None, 54, 54, 64)   0           activation_378[0][0]             
__________________________________________________________________________________________________
conv2d_379 (Conv2D)             (None, 54, 54, 80)   5120        max_pooling2d_22[0][0]           
__________________________________________________________________________________________________
batch_normalization_379 (BatchN (None, 54, 54, 80)   240         conv2d_379[0][0]                 
__________________________________________________________________________________________________
activation_379 (Activation)     (None, 54, 54, 80)   0           batch_normalization_379[0][0]    
__________________________________________________________________________________________________
conv2d_380 (Conv2D)             (None, 52, 52, 192)  138240      activation_379[0][0]             
__________________________________________________________________________________________________
batch_normalization_380 (BatchN (None, 52, 52, 192)  576         conv2d_380[0][0]                 
__________________________________________________________________________________________________
activation_380 (Activation)     (None, 52, 52, 192)  0           batch_normalization_380[0][0]    
__________________________________________________________________________________________________
max_pooling2d_23 (MaxPooling2D) (None, 25, 25, 192)  0           activation_380[0][0]             
__________________________________________________________________________________________________
conv2d_384 (Conv2D)             (None, 25, 25, 64)   12288       max_pooling2d_23[0][0]           
__________________________________________________________________________________________________
batch_normalization_384 (BatchN (None, 25, 25, 64)   192         conv2d_384[0][0]                 
__________________________________________________________________________________________________
activation_384 (Activation)     (None, 25, 25, 64)   0           batch_normalization_384[0][0]    
__________________________________________________________________________________________________
conv2d_382 (Conv2D)             (None, 25, 25, 48)   9216        max_pooling2d_23[0][0]           
__________________________________________________________________________________________________
conv2d_385 (Conv2D)             (None, 25, 25, 96)   55296       activation_384[0][0]             
__________________________________________________________________________________________________
batch_normalization_382 (BatchN (None, 25, 25, 48)   144         conv2d_382[0][0]                 
__________________________________________________________________________________________________
batch_normalization_385 (BatchN (None, 25, 25, 96)   288         conv2d_385[0][0]                 
__________________________________________________________________________________________________
activation_382 (Activation)     (None, 25, 25, 48)   0           batch_normalization_382[0][0]    
__________________________________________________________________________________________________
activation_385 (Activation)     (None, 25, 25, 96)   0           batch_normalization_385[0][0]    
__________________________________________________________________________________________________
average_pooling2d_36 (AveragePo (None, 25, 25, 192)  0           max_pooling2d_23[0][0]           
__________________________________________________________________________________________________
conv2d_381 (Conv2D)             (None, 25, 25, 96)   18432       max_pooling2d_23[0][0]           
__________________________________________________________________________________________________
conv2d_383 (Conv2D)             (None, 25, 25, 64)   76800       activation_382[0][0]             
__________________________________________________________________________________________________
conv2d_386 (Conv2D)             (None, 25, 25, 96)   82944       activation_385[0][0]             
__________________________________________________________________________________________________
conv2d_387 (Conv2D)             (None, 25, 25, 64)   12288       average_pooling2d_36[0][0]       
__________________________________________________________________________________________________
batch_normalization_381 (BatchN (None, 25, 25, 96)   288         conv2d_381[0][0]                 
__________________________________________________________________________________________________
batch_normalization_383 (BatchN (None, 25, 25, 64)   192         conv2d_383[0][0]                 
__________________________________________________________________________________________________
batch_normalization_386 (BatchN (None, 25, 25, 96)   288         conv2d_386[0][0]                 
__________________________________________________________________________________________________
batch_normalization_387 (BatchN (None, 25, 25, 64)   192         conv2d_387[0][0]                 
__________________________________________________________________________________________________
activation_381 (Activation)     (None, 25, 25, 96)   0           batch_normalization_381[0][0]    
__________________________________________________________________________________________________
activation_383 (Activation)     (None, 25, 25, 64)   0           batch_normalization_383[0][0]    
__________________________________________________________________________________________________
activation_386 (Activation)     (None, 25, 25, 96)   0           batch_normalization_386[0][0]    
__________________________________________________________________________________________________
activation_387 (Activation)     (None, 25, 25, 64)   0           batch_normalization_387[0][0]    
__________________________________________________________________________________________________
mixed_5b (Concatenate)          (None, 25, 25, 320)  0           activation_381[0][0]             
                                                                 activation_383[0][0]             
                                                                 activation_386[0][0]             
                                                                 activation_387[0][0]             
__________________________________________________________________________________________________
conv2d_391 (Conv2D)             (None, 25, 25, 32)   10240       mixed_5b[0][0]                   
__________________________________________________________________________________________________
batch_normalization_391 (BatchN (None, 25, 25, 32)   96          conv2d_391[0][0]                 
__________________________________________________________________________________________________
activation_391 (Activation)     (None, 25, 25, 32)   0           batch_normalization_391[0][0]    
__________________________________________________________________________________________________
conv2d_389 (Conv2D)             (None, 25, 25, 32)   10240       mixed_5b[0][0]                   
__________________________________________________________________________________________________
conv2d_392 (Conv2D)             (None, 25, 25, 48)   13824       activation_391[0][0]             
__________________________________________________________________________________________________
batch_normalization_389 (BatchN (None, 25, 25, 32)   96          conv2d_389[0][0]                 
__________________________________________________________________________________________________
batch_normalization_392 (BatchN (None, 25, 25, 48)   144         conv2d_392[0][0]                 
__________________________________________________________________________________________________
activation_389 (Activation)     (None, 25, 25, 32)   0           batch_normalization_389[0][0]    
__________________________________________________________________________________________________
activation_392 (Activation)     (None, 25, 25, 48)   0           batch_normalization_392[0][0]    
__________________________________________________________________________________________________
conv2d_388 (Conv2D)             (None, 25, 25, 32)   10240       mixed_5b[0][0]                   
__________________________________________________________________________________________________
conv2d_390 (Conv2D)             (None, 25, 25, 32)   9216        activation_389[0][0]             
__________________________________________________________________________________________________
conv2d_393 (Conv2D)             (None, 25, 25, 64)   27648       activation_392[0][0]             
__________________________________________________________________________________________________
batch_normalization_388 (BatchN (None, 25, 25, 32)   96          conv2d_388[0][0]                 
__________________________________________________________________________________________________
batch_normalization_390 (BatchN (None, 25, 25, 32)   96          conv2d_390[0][0]                 
__________________________________________________________________________________________________
batch_normalization_393 (BatchN (None, 25, 25, 64)   192         conv2d_393[0][0]                 
__________________________________________________________________________________________________
activation_388 (Activation)     (None, 25, 25, 32)   0           batch_normalization_388[0][0]    
__________________________________________________________________________________________________
activation_390 (Activation)     (None, 25, 25, 32)   0           batch_normalization_390[0][0]    
__________________________________________________________________________________________________
activation_393 (Activation)     (None, 25, 25, 64)   0           batch_normalization_393[0][0]    
__________________________________________________________________________________________________
block35_1_mixed (Concatenate)   (None, 25, 25, 128)  0           activation_388[0][0]             
                                                                 activation_390[0][0]             
                                                                 activation_393[0][0]             
__________________________________________________________________________________________________
block35_1_conv (Conv2D)         (None, 25, 25, 320)  41280       block35_1_mixed[0][0]            
__________________________________________________________________________________________________
block35_1 (Lambda)              (None, 25, 25, 320)  0           mixed_5b[0][0]                   
                                                                 block35_1_conv[0][0]             
__________________________________________________________________________________________________
block35_1_ac (Activation)       (None, 25, 25, 320)  0           block35_1[0][0]                  
__________________________________________________________________________________________________
conv2d_397 (Conv2D)             (None, 25, 25, 32)   10240       block35_1_ac[0][0]               
__________________________________________________________________________________________________
batch_normalization_397 (BatchN (None, 25, 25, 32)   96          conv2d_397[0][0]                 
__________________________________________________________________________________________________
activation_397 (Activation)     (None, 25, 25, 32)   0           batch_normalization_397[0][0]    
__________________________________________________________________________________________________
conv2d_395 (Conv2D)             (None, 25, 25, 32)   10240       block35_1_ac[0][0]               
__________________________________________________________________________________________________
conv2d_398 (Conv2D)             (None, 25, 25, 48)   13824       activation_397[0][0]             
__________________________________________________________________________________________________
batch_normalization_395 (BatchN (None, 25, 25, 32)   96          conv2d_395[0][0]                 
__________________________________________________________________________________________________
batch_normalization_398 (BatchN (None, 25, 25, 48)   144         conv2d_398[0][0]                 
__________________________________________________________________________________________________
activation_395 (Activation)     (None, 25, 25, 32)   0           batch_normalization_395[0][0]    
__________________________________________________________________________________________________
activation_398 (Activation)     (None, 25, 25, 48)   0           batch_normalization_398[0][0]    
__________________________________________________________________________________________________
conv2d_394 (Conv2D)             (None, 25, 25, 32)   10240       block35_1_ac[0][0]               
__________________________________________________________________________________________________
conv2d_396 (Conv2D)             (None, 25, 25, 32)   9216        activation_395[0][0]             
__________________________________________________________________________________________________
conv2d_399 (Conv2D)             (None, 25, 25, 64)   27648       activation_398[0][0]             
__________________________________________________________________________________________________
batch_normalization_394 (BatchN (None, 25, 25, 32)   96          conv2d_394[0][0]                 
__________________________________________________________________________________________________
batch_normalization_396 (BatchN (None, 25, 25, 32)   96          conv2d_396[0][0]                 
__________________________________________________________________________________________________
batch_normalization_399 (BatchN (None, 25, 25, 64)   192         conv2d_399[0][0]                 
__________________________________________________________________________________________________
activation_394 (Activation)     (None, 25, 25, 32)   0           batch_normalization_394[0][0]    
__________________________________________________________________________________________________
activation_396 (Activation)     (None, 25, 25, 32)   0           batch_normalization_396[0][0]    
__________________________________________________________________________________________________
activation_399 (Activation)     (None, 25, 25, 64)   0           batch_normalization_399[0][0]    
__________________________________________________________________________________________________
block35_2_mixed (Concatenate)   (None, 25, 25, 128)  0           activation_394[0][0]             
                                                                 activation_396[0][0]             
                                                                 activation_399[0][0]             
__________________________________________________________________________________________________
block35_2_conv (Conv2D)         (None, 25, 25, 320)  41280       block35_2_mixed[0][0]            
__________________________________________________________________________________________________
block35_2 (Lambda)              (None, 25, 25, 320)  0           block35_1_ac[0][0]               
                                                                 block35_2_conv[0][0]             
__________________________________________________________________________________________________
block35_2_ac (Activation)       (None, 25, 25, 320)  0           block35_2[0][0]                  
__________________________________________________________________________________________________
conv2d_403 (Conv2D)             (None, 25, 25, 32)   10240       block35_2_ac[0][0]               
__________________________________________________________________________________________________
batch_normalization_403 (BatchN (None, 25, 25, 32)   96          conv2d_403[0][0]                 
__________________________________________________________________________________________________
activation_403 (Activation)     (None, 25, 25, 32)   0           batch_normalization_403[0][0]    
__________________________________________________________________________________________________
conv2d_401 (Conv2D)             (None, 25, 25, 32)   10240       block35_2_ac[0][0]               
__________________________________________________________________________________________________
conv2d_404 (Conv2D)             (None, 25, 25, 48)   13824       activation_403[0][0]             
__________________________________________________________________________________________________
batch_normalization_401 (BatchN (None, 25, 25, 32)   96          conv2d_401[0][0]                 
__________________________________________________________________________________________________
batch_normalization_404 (BatchN (None, 25, 25, 48)   144         conv2d_404[0][0]                 
__________________________________________________________________________________________________
activation_401 (Activation)     (None, 25, 25, 32)   0           batch_normalization_401[0][0]    
__________________________________________________________________________________________________
activation_404 (Activation)     (None, 25, 25, 48)   0           batch_normalization_404[0][0]    
__________________________________________________________________________________________________
conv2d_400 (Conv2D)             (None, 25, 25, 32)   10240       block35_2_ac[0][0]               
__________________________________________________________________________________________________
conv2d_402 (Conv2D)             (None, 25, 25, 32)   9216        activation_401[0][0]             
__________________________________________________________________________________________________
conv2d_405 (Conv2D)             (None, 25, 25, 64)   27648       activation_404[0][0]             
__________________________________________________________________________________________________
batch_normalization_400 (BatchN (None, 25, 25, 32)   96          conv2d_400[0][0]                 
__________________________________________________________________________________________________
batch_normalization_402 (BatchN (None, 25, 25, 32)   96          conv2d_402[0][0]                 
__________________________________________________________________________________________________
batch_normalization_405 (BatchN (None, 25, 25, 64)   192         conv2d_405[0][0]                 
__________________________________________________________________________________________________
activation_400 (Activation)     (None, 25, 25, 32)   0           batch_normalization_400[0][0]    
__________________________________________________________________________________________________
activation_402 (Activation)     (None, 25, 25, 32)   0           batch_normalization_402[0][0]    
__________________________________________________________________________________________________
activation_405 (Activation)     (None, 25, 25, 64)   0           batch_normalization_405[0][0]    
__________________________________________________________________________________________________
block35_3_mixed (Concatenate)   (None, 25, 25, 128)  0           activation_400[0][0]             
                                                                 activation_402[0][0]             
                                                                 activation_405[0][0]             
__________________________________________________________________________________________________
block35_3_conv (Conv2D)         (None, 25, 25, 320)  41280       block35_3_mixed[0][0]            
__________________________________________________________________________________________________
block35_3 (Lambda)              (None, 25, 25, 320)  0           block35_2_ac[0][0]               
                                                                 block35_3_conv[0][0]             
__________________________________________________________________________________________________
block35_3_ac (Activation)       (None, 25, 25, 320)  0           block35_3[0][0]                  
__________________________________________________________________________________________________
conv2d_409 (Conv2D)             (None, 25, 25, 32)   10240       block35_3_ac[0][0]               
__________________________________________________________________________________________________
batch_normalization_409 (BatchN (None, 25, 25, 32)   96          conv2d_409[0][0]                 
__________________________________________________________________________________________________
activation_409 (Activation)     (None, 25, 25, 32)   0           batch_normalization_409[0][0]    
__________________________________________________________________________________________________
conv2d_407 (Conv2D)             (None, 25, 25, 32)   10240       block35_3_ac[0][0]               
__________________________________________________________________________________________________
conv2d_410 (Conv2D)             (None, 25, 25, 48)   13824       activation_409[0][0]             
__________________________________________________________________________________________________
batch_normalization_407 (BatchN (None, 25, 25, 32)   96          conv2d_407[0][0]                 
__________________________________________________________________________________________________
batch_normalization_410 (BatchN (None, 25, 25, 48)   144         conv2d_410[0][0]                 
__________________________________________________________________________________________________
activation_407 (Activation)     (None, 25, 25, 32)   0           batch_normalization_407[0][0]    
__________________________________________________________________________________________________
activation_410 (Activation)     (None, 25, 25, 48)   0           batch_normalization_410[0][0]    
__________________________________________________________________________________________________
conv2d_406 (Conv2D)             (None, 25, 25, 32)   10240       block35_3_ac[0][0]               
__________________________________________________________________________________________________
conv2d_408 (Conv2D)             (None, 25, 25, 32)   9216        activation_407[0][0]             
__________________________________________________________________________________________________
conv2d_411 (Conv2D)             (None, 25, 25, 64)   27648       activation_410[0][0]             
__________________________________________________________________________________________________
batch_normalization_406 (BatchN (None, 25, 25, 32)   96          conv2d_406[0][0]                 
__________________________________________________________________________________________________
batch_normalization_408 (BatchN (None, 25, 25, 32)   96          conv2d_408[0][0]                 
__________________________________________________________________________________________________
batch_normalization_411 (BatchN (None, 25, 25, 64)   192         conv2d_411[0][0]                 
__________________________________________________________________________________________________
activation_406 (Activation)     (None, 25, 25, 32)   0           batch_normalization_406[0][0]    
__________________________________________________________________________________________________
activation_408 (Activation)     (None, 25, 25, 32)   0           batch_normalization_408[0][0]    
__________________________________________________________________________________________________
activation_411 (Activation)     (None, 25, 25, 64)   0           batch_normalization_411[0][0]    
__________________________________________________________________________________________________
block35_4_mixed (Concatenate)   (None, 25, 25, 128)  0           activation_406[0][0]             
                                                                 activation_408[0][0]             
                                                                 activation_411[0][0]             
__________________________________________________________________________________________________
block35_4_conv (Conv2D)         (None, 25, 25, 320)  41280       block35_4_mixed[0][0]            
__________________________________________________________________________________________________
block35_4 (Lambda)              (None, 25, 25, 320)  0           block35_3_ac[0][0]               
                                                                 block35_4_conv[0][0]             
__________________________________________________________________________________________________
block35_4_ac (Activation)       (None, 25, 25, 320)  0           block35_4[0][0]                  
__________________________________________________________________________________________________
conv2d_415 (Conv2D)             (None, 25, 25, 32)   10240       block35_4_ac[0][0]               
__________________________________________________________________________________________________
batch_normalization_415 (BatchN (None, 25, 25, 32)   96          conv2d_415[0][0]                 
__________________________________________________________________________________________________
activation_415 (Activation)     (None, 25, 25, 32)   0           batch_normalization_415[0][0]    
__________________________________________________________________________________________________
conv2d_413 (Conv2D)             (None, 25, 25, 32)   10240       block35_4_ac[0][0]               
__________________________________________________________________________________________________
conv2d_416 (Conv2D)             (None, 25, 25, 48)   13824       activation_415[0][0]             
__________________________________________________________________________________________________
batch_normalization_413 (BatchN (None, 25, 25, 32)   96          conv2d_413[0][0]                 
__________________________________________________________________________________________________
batch_normalization_416 (BatchN (None, 25, 25, 48)   144         conv2d_416[0][0]                 
__________________________________________________________________________________________________
activation_413 (Activation)     (None, 25, 25, 32)   0           batch_normalization_413[0][0]    
__________________________________________________________________________________________________
activation_416 (Activation)     (None, 25, 25, 48)   0           batch_normalization_416[0][0]    
__________________________________________________________________________________________________
conv2d_412 (Conv2D)             (None, 25, 25, 32)   10240       block35_4_ac[0][0]               
__________________________________________________________________________________________________
conv2d_414 (Conv2D)             (None, 25, 25, 32)   9216        activation_413[0][0]             
__________________________________________________________________________________________________
conv2d_417 (Conv2D)             (None, 25, 25, 64)   27648       activation_416[0][0]             
__________________________________________________________________________________________________
batch_normalization_412 (BatchN (None, 25, 25, 32)   96          conv2d_412[0][0]                 
__________________________________________________________________________________________________
batch_normalization_414 (BatchN (None, 25, 25, 32)   96          conv2d_414[0][0]                 
__________________________________________________________________________________________________
batch_normalization_417 (BatchN (None, 25, 25, 64)   192         conv2d_417[0][0]                 
__________________________________________________________________________________________________
activation_412 (Activation)     (None, 25, 25, 32)   0           batch_normalization_412[0][0]    
__________________________________________________________________________________________________
activation_414 (Activation)     (None, 25, 25, 32)   0           batch_normalization_414[0][0]    
__________________________________________________________________________________________________
activation_417 (Activation)     (None, 25, 25, 64)   0           batch_normalization_417[0][0]    
__________________________________________________________________________________________________
block35_5_mixed (Concatenate)   (None, 25, 25, 128)  0           activation_412[0][0]             
                                                                 activation_414[0][0]             
                                                                 activation_417[0][0]             
__________________________________________________________________________________________________
block35_5_conv (Conv2D)         (None, 25, 25, 320)  41280       block35_5_mixed[0][0]            
__________________________________________________________________________________________________
block35_5 (Lambda)              (None, 25, 25, 320)  0           block35_4_ac[0][0]               
                                                                 block35_5_conv[0][0]             
__________________________________________________________________________________________________
block35_5_ac (Activation)       (None, 25, 25, 320)  0           block35_5[0][0]                  
__________________________________________________________________________________________________
conv2d_421 (Conv2D)             (None, 25, 25, 32)   10240       block35_5_ac[0][0]               
__________________________________________________________________________________________________
batch_normalization_421 (BatchN (None, 25, 25, 32)   96          conv2d_421[0][0]                 
__________________________________________________________________________________________________
activation_421 (Activation)     (None, 25, 25, 32)   0           batch_normalization_421[0][0]    
__________________________________________________________________________________________________
conv2d_419 (Conv2D)             (None, 25, 25, 32)   10240       block35_5_ac[0][0]               
__________________________________________________________________________________________________
conv2d_422 (Conv2D)             (None, 25, 25, 48)   13824       activation_421[0][0]             
__________________________________________________________________________________________________
batch_normalization_419 (BatchN (None, 25, 25, 32)   96          conv2d_419[0][0]                 
__________________________________________________________________________________________________
batch_normalization_422 (BatchN (None, 25, 25, 48)   144         conv2d_422[0][0]                 
__________________________________________________________________________________________________
activation_419 (Activation)     (None, 25, 25, 32)   0           batch_normalization_419[0][0]    
__________________________________________________________________________________________________
activation_422 (Activation)     (None, 25, 25, 48)   0           batch_normalization_422[0][0]    
__________________________________________________________________________________________________
conv2d_418 (Conv2D)             (None, 25, 25, 32)   10240       block35_5_ac[0][0]               
__________________________________________________________________________________________________
conv2d_420 (Conv2D)             (None, 25, 25, 32)   9216        activation_419[0][0]             
__________________________________________________________________________________________________
conv2d_423 (Conv2D)             (None, 25, 25, 64)   27648       activation_422[0][0]             
__________________________________________________________________________________________________
batch_normalization_418 (BatchN (None, 25, 25, 32)   96          conv2d_418[0][0]                 
__________________________________________________________________________________________________
batch_normalization_420 (BatchN (None, 25, 25, 32)   96          conv2d_420[0][0]                 
__________________________________________________________________________________________________
batch_normalization_423 (BatchN (None, 25, 25, 64)   192         conv2d_423[0][0]                 
__________________________________________________________________________________________________
activation_418 (Activation)     (None, 25, 25, 32)   0           batch_normalization_418[0][0]    
__________________________________________________________________________________________________
activation_420 (Activation)     (None, 25, 25, 32)   0           batch_normalization_420[0][0]    
__________________________________________________________________________________________________
activation_423 (Activation)     (None, 25, 25, 64)   0           batch_normalization_423[0][0]    
__________________________________________________________________________________________________
block35_6_mixed (Concatenate)   (None, 25, 25, 128)  0           activation_418[0][0]             
                                                                 activation_420[0][0]             
                                                                 activation_423[0][0]             
__________________________________________________________________________________________________
block35_6_conv (Conv2D)         (None, 25, 25, 320)  41280       block35_6_mixed[0][0]            
__________________________________________________________________________________________________
block35_6 (Lambda)              (None, 25, 25, 320)  0           block35_5_ac[0][0]               
                                                                 block35_6_conv[0][0]             
__________________________________________________________________________________________________
block35_6_ac (Activation)       (None, 25, 25, 320)  0           block35_6[0][0]                  
__________________________________________________________________________________________________
conv2d_427 (Conv2D)             (None, 25, 25, 32)   10240       block35_6_ac[0][0]               
__________________________________________________________________________________________________
batch_normalization_427 (BatchN (None, 25, 25, 32)   96          conv2d_427[0][0]                 
__________________________________________________________________________________________________
activation_427 (Activation)     (None, 25, 25, 32)   0           batch_normalization_427[0][0]    
__________________________________________________________________________________________________
conv2d_425 (Conv2D)             (None, 25, 25, 32)   10240       block35_6_ac[0][0]               
__________________________________________________________________________________________________
conv2d_428 (Conv2D)             (None, 25, 25, 48)   13824       activation_427[0][0]             
__________________________________________________________________________________________________
batch_normalization_425 (BatchN (None, 25, 25, 32)   96          conv2d_425[0][0]                 
__________________________________________________________________________________________________
batch_normalization_428 (BatchN (None, 25, 25, 48)   144         conv2d_428[0][0]                 
__________________________________________________________________________________________________
activation_425 (Activation)     (None, 25, 25, 32)   0           batch_normalization_425[0][0]    
__________________________________________________________________________________________________
activation_428 (Activation)     (None, 25, 25, 48)   0           batch_normalization_428[0][0]    
__________________________________________________________________________________________________
conv2d_424 (Conv2D)             (None, 25, 25, 32)   10240       block35_6_ac[0][0]               
__________________________________________________________________________________________________
conv2d_426 (Conv2D)             (None, 25, 25, 32)   9216        activation_425[0][0]             
__________________________________________________________________________________________________
conv2d_429 (Conv2D)             (None, 25, 25, 64)   27648       activation_428[0][0]             
__________________________________________________________________________________________________
batch_normalization_424 (BatchN (None, 25, 25, 32)   96          conv2d_424[0][0]                 
__________________________________________________________________________________________________
batch_normalization_426 (BatchN (None, 25, 25, 32)   96          conv2d_426[0][0]                 
__________________________________________________________________________________________________
batch_normalization_429 (BatchN (None, 25, 25, 64)   192         conv2d_429[0][0]                 
__________________________________________________________________________________________________
activation_424 (Activation)     (None, 25, 25, 32)   0           batch_normalization_424[0][0]    
__________________________________________________________________________________________________
activation_426 (Activation)     (None, 25, 25, 32)   0           batch_normalization_426[0][0]    
__________________________________________________________________________________________________
activation_429 (Activation)     (None, 25, 25, 64)   0           batch_normalization_429[0][0]    
__________________________________________________________________________________________________
block35_7_mixed (Concatenate)   (None, 25, 25, 128)  0           activation_424[0][0]             
                                                                 activation_426[0][0]             
                                                                 activation_429[0][0]             
__________________________________________________________________________________________________
block35_7_conv (Conv2D)         (None, 25, 25, 320)  41280       block35_7_mixed[0][0]            
__________________________________________________________________________________________________
block35_7 (Lambda)              (None, 25, 25, 320)  0           block35_6_ac[0][0]               
                                                                 block35_7_conv[0][0]             
__________________________________________________________________________________________________
block35_7_ac (Activation)       (None, 25, 25, 320)  0           block35_7[0][0]                  
__________________________________________________________________________________________________
conv2d_433 (Conv2D)             (None, 25, 25, 32)   10240       block35_7_ac[0][0]               
__________________________________________________________________________________________________
batch_normalization_433 (BatchN (None, 25, 25, 32)   96          conv2d_433[0][0]                 
__________________________________________________________________________________________________
activation_433 (Activation)     (None, 25, 25, 32)   0           batch_normalization_433[0][0]    
__________________________________________________________________________________________________
conv2d_431 (Conv2D)             (None, 25, 25, 32)   10240       block35_7_ac[0][0]               
__________________________________________________________________________________________________
conv2d_434 (Conv2D)             (None, 25, 25, 48)   13824       activation_433[0][0]             
__________________________________________________________________________________________________
batch_normalization_431 (BatchN (None, 25, 25, 32)   96          conv2d_431[0][0]                 
__________________________________________________________________________________________________
batch_normalization_434 (BatchN (None, 25, 25, 48)   144         conv2d_434[0][0]                 
__________________________________________________________________________________________________
activation_431 (Activation)     (None, 25, 25, 32)   0           batch_normalization_431[0][0]    
__________________________________________________________________________________________________
activation_434 (Activation)     (None, 25, 25, 48)   0           batch_normalization_434[0][0]    
__________________________________________________________________________________________________
conv2d_430 (Conv2D)             (None, 25, 25, 32)   10240       block35_7_ac[0][0]               
__________________________________________________________________________________________________
conv2d_432 (Conv2D)             (None, 25, 25, 32)   9216        activation_431[0][0]             
__________________________________________________________________________________________________
conv2d_435 (Conv2D)             (None, 25, 25, 64)   27648       activation_434[0][0]             
__________________________________________________________________________________________________
batch_normalization_430 (BatchN (None, 25, 25, 32)   96          conv2d_430[0][0]                 
__________________________________________________________________________________________________
batch_normalization_432 (BatchN (None, 25, 25, 32)   96          conv2d_432[0][0]                 
__________________________________________________________________________________________________
batch_normalization_435 (BatchN (None, 25, 25, 64)   192         conv2d_435[0][0]                 
__________________________________________________________________________________________________
activation_430 (Activation)     (None, 25, 25, 32)   0           batch_normalization_430[0][0]    
__________________________________________________________________________________________________
activation_432 (Activation)     (None, 25, 25, 32)   0           batch_normalization_432[0][0]    
__________________________________________________________________________________________________
activation_435 (Activation)     (None, 25, 25, 64)   0           batch_normalization_435[0][0]    
__________________________________________________________________________________________________
block35_8_mixed (Concatenate)   (None, 25, 25, 128)  0           activation_430[0][0]             
                                                                 activation_432[0][0]             
                                                                 activation_435[0][0]             
__________________________________________________________________________________________________
block35_8_conv (Conv2D)         (None, 25, 25, 320)  41280       block35_8_mixed[0][0]            
__________________________________________________________________________________________________
block35_8 (Lambda)              (None, 25, 25, 320)  0           block35_7_ac[0][0]               
                                                                 block35_8_conv[0][0]             
__________________________________________________________________________________________________
block35_8_ac (Activation)       (None, 25, 25, 320)  0           block35_8[0][0]                  
__________________________________________________________________________________________________
conv2d_439 (Conv2D)             (None, 25, 25, 32)   10240       block35_8_ac[0][0]               
__________________________________________________________________________________________________
batch_normalization_439 (BatchN (None, 25, 25, 32)   96          conv2d_439[0][0]                 
__________________________________________________________________________________________________
activation_439 (Activation)     (None, 25, 25, 32)   0           batch_normalization_439[0][0]    
__________________________________________________________________________________________________
conv2d_437 (Conv2D)             (None, 25, 25, 32)   10240       block35_8_ac[0][0]               
__________________________________________________________________________________________________
conv2d_440 (Conv2D)             (None, 25, 25, 48)   13824       activation_439[0][0]             
__________________________________________________________________________________________________
batch_normalization_437 (BatchN (None, 25, 25, 32)   96          conv2d_437[0][0]                 
__________________________________________________________________________________________________
batch_normalization_440 (BatchN (None, 25, 25, 48)   144         conv2d_440[0][0]                 
__________________________________________________________________________________________________
activation_437 (Activation)     (None, 25, 25, 32)   0           batch_normalization_437[0][0]    
__________________________________________________________________________________________________
activation_440 (Activation)     (None, 25, 25, 48)   0           batch_normalization_440[0][0]    
__________________________________________________________________________________________________
conv2d_436 (Conv2D)             (None, 25, 25, 32)   10240       block35_8_ac[0][0]               
__________________________________________________________________________________________________
conv2d_438 (Conv2D)             (None, 25, 25, 32)   9216        activation_437[0][0]             
__________________________________________________________________________________________________
conv2d_441 (Conv2D)             (None, 25, 25, 64)   27648       activation_440[0][0]             
__________________________________________________________________________________________________
batch_normalization_436 (BatchN (None, 25, 25, 32)   96          conv2d_436[0][0]                 
__________________________________________________________________________________________________
batch_normalization_438 (BatchN (None, 25, 25, 32)   96          conv2d_438[0][0]                 
__________________________________________________________________________________________________
batch_normalization_441 (BatchN (None, 25, 25, 64)   192         conv2d_441[0][0]                 
__________________________________________________________________________________________________
activation_436 (Activation)     (None, 25, 25, 32)   0           batch_normalization_436[0][0]    
__________________________________________________________________________________________________
activation_438 (Activation)     (None, 25, 25, 32)   0           batch_normalization_438[0][0]    
__________________________________________________________________________________________________
activation_441 (Activation)     (None, 25, 25, 64)   0           batch_normalization_441[0][0]    
__________________________________________________________________________________________________
block35_9_mixed (Concatenate)   (None, 25, 25, 128)  0           activation_436[0][0]             
                                                                 activation_438[0][0]             
                                                                 activation_441[0][0]             
__________________________________________________________________________________________________
block35_9_conv (Conv2D)         (None, 25, 25, 320)  41280       block35_9_mixed[0][0]            
__________________________________________________________________________________________________
block35_9 (Lambda)              (None, 25, 25, 320)  0           block35_8_ac[0][0]               
                                                                 block35_9_conv[0][0]             
__________________________________________________________________________________________________
block35_9_ac (Activation)       (None, 25, 25, 320)  0           block35_9[0][0]                  
__________________________________________________________________________________________________
conv2d_445 (Conv2D)             (None, 25, 25, 32)   10240       block35_9_ac[0][0]               
__________________________________________________________________________________________________
batch_normalization_445 (BatchN (None, 25, 25, 32)   96          conv2d_445[0][0]                 
__________________________________________________________________________________________________
activation_445 (Activation)     (None, 25, 25, 32)   0           batch_normalization_445[0][0]    
__________________________________________________________________________________________________
conv2d_443 (Conv2D)             (None, 25, 25, 32)   10240       block35_9_ac[0][0]               
__________________________________________________________________________________________________
conv2d_446 (Conv2D)             (None, 25, 25, 48)   13824       activation_445[0][0]             
__________________________________________________________________________________________________
batch_normalization_443 (BatchN (None, 25, 25, 32)   96          conv2d_443[0][0]                 
__________________________________________________________________________________________________
batch_normalization_446 (BatchN (None, 25, 25, 48)   144         conv2d_446[0][0]                 
__________________________________________________________________________________________________
activation_443 (Activation)     (None, 25, 25, 32)   0           batch_normalization_443[0][0]    
__________________________________________________________________________________________________
activation_446 (Activation)     (None, 25, 25, 48)   0           batch_normalization_446[0][0]    
__________________________________________________________________________________________________
conv2d_442 (Conv2D)             (None, 25, 25, 32)   10240       block35_9_ac[0][0]               
__________________________________________________________________________________________________
conv2d_444 (Conv2D)             (None, 25, 25, 32)   9216        activation_443[0][0]             
__________________________________________________________________________________________________
conv2d_447 (Conv2D)             (None, 25, 25, 64)   27648       activation_446[0][0]             
__________________________________________________________________________________________________
batch_normalization_442 (BatchN (None, 25, 25, 32)   96          conv2d_442[0][0]                 
__________________________________________________________________________________________________
batch_normalization_444 (BatchN (None, 25, 25, 32)   96          conv2d_444[0][0]                 
__________________________________________________________________________________________________
batch_normalization_447 (BatchN (None, 25, 25, 64)   192         conv2d_447[0][0]                 
__________________________________________________________________________________________________
activation_442 (Activation)     (None, 25, 25, 32)   0           batch_normalization_442[0][0]    
__________________________________________________________________________________________________
activation_444 (Activation)     (None, 25, 25, 32)   0           batch_normalization_444[0][0]    
__________________________________________________________________________________________________
activation_447 (Activation)     (None, 25, 25, 64)   0           batch_normalization_447[0][0]    
__________________________________________________________________________________________________
block35_10_mixed (Concatenate)  (None, 25, 25, 128)  0           activation_442[0][0]             
                                                                 activation_444[0][0]             
                                                                 activation_447[0][0]             
__________________________________________________________________________________________________
block35_10_conv (Conv2D)        (None, 25, 25, 320)  41280       block35_10_mixed[0][0]           
__________________________________________________________________________________________________
block35_10 (Lambda)             (None, 25, 25, 320)  0           block35_9_ac[0][0]               
                                                                 block35_10_conv[0][0]            
__________________________________________________________________________________________________
block35_10_ac (Activation)      (None, 25, 25, 320)  0           block35_10[0][0]                 
__________________________________________________________________________________________________
conv2d_449 (Conv2D)             (None, 25, 25, 256)  81920       block35_10_ac[0][0]              
__________________________________________________________________________________________________
batch_normalization_449 (BatchN (None, 25, 25, 256)  768         conv2d_449[0][0]                 
__________________________________________________________________________________________________
activation_449 (Activation)     (None, 25, 25, 256)  0           batch_normalization_449[0][0]    
__________________________________________________________________________________________________
conv2d_450 (Conv2D)             (None, 25, 25, 256)  589824      activation_449[0][0]             
__________________________________________________________________________________________________
batch_normalization_450 (BatchN (None, 25, 25, 256)  768         conv2d_450[0][0]                 
__________________________________________________________________________________________________
activation_450 (Activation)     (None, 25, 25, 256)  0           batch_normalization_450[0][0]    
__________________________________________________________________________________________________
conv2d_448 (Conv2D)             (None, 12, 12, 384)  1105920     block35_10_ac[0][0]              
__________________________________________________________________________________________________
conv2d_451 (Conv2D)             (None, 12, 12, 384)  884736      activation_450[0][0]             
__________________________________________________________________________________________________
batch_normalization_448 (BatchN (None, 12, 12, 384)  1152        conv2d_448[0][0]                 
__________________________________________________________________________________________________
batch_normalization_451 (BatchN (None, 12, 12, 384)  1152        conv2d_451[0][0]                 
__________________________________________________________________________________________________
activation_448 (Activation)     (None, 12, 12, 384)  0           batch_normalization_448[0][0]    
__________________________________________________________________________________________________
activation_451 (Activation)     (None, 12, 12, 384)  0           batch_normalization_451[0][0]    
__________________________________________________________________________________________________
max_pooling2d_24 (MaxPooling2D) (None, 12, 12, 320)  0           block35_10_ac[0][0]              
__________________________________________________________________________________________________
mixed_6a (Concatenate)          (None, 12, 12, 1088) 0           activation_448[0][0]             
                                                                 activation_451[0][0]             
                                                                 max_pooling2d_24[0][0]           
__________________________________________________________________________________________________
conv2d_453 (Conv2D)             (None, 12, 12, 128)  139264      mixed_6a[0][0]                   
__________________________________________________________________________________________________
batch_normalization_453 (BatchN (None, 12, 12, 128)  384         conv2d_453[0][0]                 
__________________________________________________________________________________________________
activation_453 (Activation)     (None, 12, 12, 128)  0           batch_normalization_453[0][0]    
__________________________________________________________________________________________________
conv2d_454 (Conv2D)             (None, 12, 12, 160)  143360      activation_453[0][0]             
__________________________________________________________________________________________________
batch_normalization_454 (BatchN (None, 12, 12, 160)  480         conv2d_454[0][0]                 
__________________________________________________________________________________________________
activation_454 (Activation)     (None, 12, 12, 160)  0           batch_normalization_454[0][0]    
__________________________________________________________________________________________________
conv2d_452 (Conv2D)             (None, 12, 12, 192)  208896      mixed_6a[0][0]                   
__________________________________________________________________________________________________
conv2d_455 (Conv2D)             (None, 12, 12, 192)  215040      activation_454[0][0]             
__________________________________________________________________________________________________
batch_normalization_452 (BatchN (None, 12, 12, 192)  576         conv2d_452[0][0]                 
__________________________________________________________________________________________________
batch_normalization_455 (BatchN (None, 12, 12, 192)  576         conv2d_455[0][0]                 
__________________________________________________________________________________________________
activation_452 (Activation)     (None, 12, 12, 192)  0           batch_normalization_452[0][0]    
__________________________________________________________________________________________________
activation_455 (Activation)     (None, 12, 12, 192)  0           batch_normalization_455[0][0]    
__________________________________________________________________________________________________
block17_1_mixed (Concatenate)   (None, 12, 12, 384)  0           activation_452[0][0]             
                                                                 activation_455[0][0]             
__________________________________________________________________________________________________
block17_1_conv (Conv2D)         (None, 12, 12, 1088) 418880      block17_1_mixed[0][0]            
__________________________________________________________________________________________________
block17_1 (Lambda)              (None, 12, 12, 1088) 0           mixed_6a[0][0]                   
                                                                 block17_1_conv[0][0]             
__________________________________________________________________________________________________
block17_1_ac (Activation)       (None, 12, 12, 1088) 0           block17_1[0][0]                  
__________________________________________________________________________________________________
conv2d_457 (Conv2D)             (None, 12, 12, 128)  139264      block17_1_ac[0][0]               
__________________________________________________________________________________________________
batch_normalization_457 (BatchN (None, 12, 12, 128)  384         conv2d_457[0][0]                 
__________________________________________________________________________________________________
activation_457 (Activation)     (None, 12, 12, 128)  0           batch_normalization_457[0][0]    
__________________________________________________________________________________________________
conv2d_458 (Conv2D)             (None, 12, 12, 160)  143360      activation_457[0][0]             
__________________________________________________________________________________________________
batch_normalization_458 (BatchN (None, 12, 12, 160)  480         conv2d_458[0][0]                 
__________________________________________________________________________________________________
activation_458 (Activation)     (None, 12, 12, 160)  0           batch_normalization_458[0][0]    
__________________________________________________________________________________________________
conv2d_456 (Conv2D)             (None, 12, 12, 192)  208896      block17_1_ac[0][0]               
__________________________________________________________________________________________________
conv2d_459 (Conv2D)             (None, 12, 12, 192)  215040      activation_458[0][0]             
__________________________________________________________________________________________________
batch_normalization_456 (BatchN (None, 12, 12, 192)  576         conv2d_456[0][0]                 
__________________________________________________________________________________________________
batch_normalization_459 (BatchN (None, 12, 12, 192)  576         conv2d_459[0][0]                 
__________________________________________________________________________________________________
activation_456 (Activation)     (None, 12, 12, 192)  0           batch_normalization_456[0][0]    
__________________________________________________________________________________________________
activation_459 (Activation)     (None, 12, 12, 192)  0           batch_normalization_459[0][0]    
__________________________________________________________________________________________________
block17_2_mixed (Concatenate)   (None, 12, 12, 384)  0           activation_456[0][0]             
                                                                 activation_459[0][0]             
__________________________________________________________________________________________________
block17_2_conv (Conv2D)         (None, 12, 12, 1088) 418880      block17_2_mixed[0][0]            
__________________________________________________________________________________________________
block17_2 (Lambda)              (None, 12, 12, 1088) 0           block17_1_ac[0][0]               
                                                                 block17_2_conv[0][0]             
__________________________________________________________________________________________________
block17_2_ac (Activation)       (None, 12, 12, 1088) 0           block17_2[0][0]                  
__________________________________________________________________________________________________
conv2d_461 (Conv2D)             (None, 12, 12, 128)  139264      block17_2_ac[0][0]               
__________________________________________________________________________________________________
batch_normalization_461 (BatchN (None, 12, 12, 128)  384         conv2d_461[0][0]                 
__________________________________________________________________________________________________
activation_461 (Activation)     (None, 12, 12, 128)  0           batch_normalization_461[0][0]    
__________________________________________________________________________________________________
conv2d_462 (Conv2D)             (None, 12, 12, 160)  143360      activation_461[0][0]             
__________________________________________________________________________________________________
batch_normalization_462 (BatchN (None, 12, 12, 160)  480         conv2d_462[0][0]                 
__________________________________________________________________________________________________
activation_462 (Activation)     (None, 12, 12, 160)  0           batch_normalization_462[0][0]    
__________________________________________________________________________________________________
conv2d_460 (Conv2D)             (None, 12, 12, 192)  208896      block17_2_ac[0][0]               
__________________________________________________________________________________________________
conv2d_463 (Conv2D)             (None, 12, 12, 192)  215040      activation_462[0][0]             
__________________________________________________________________________________________________
batch_normalization_460 (BatchN (None, 12, 12, 192)  576         conv2d_460[0][0]                 
__________________________________________________________________________________________________
batch_normalization_463 (BatchN (None, 12, 12, 192)  576         conv2d_463[0][0]                 
__________________________________________________________________________________________________
activation_460 (Activation)     (None, 12, 12, 192)  0           batch_normalization_460[0][0]    
__________________________________________________________________________________________________
activation_463 (Activation)     (None, 12, 12, 192)  0           batch_normalization_463[0][0]    
__________________________________________________________________________________________________
block17_3_mixed (Concatenate)   (None, 12, 12, 384)  0           activation_460[0][0]             
                                                                 activation_463[0][0]             
__________________________________________________________________________________________________
block17_3_conv (Conv2D)         (None, 12, 12, 1088) 418880      block17_3_mixed[0][0]            
__________________________________________________________________________________________________
block17_3 (Lambda)              (None, 12, 12, 1088) 0           block17_2_ac[0][0]               
                                                                 block17_3_conv[0][0]             
__________________________________________________________________________________________________
block17_3_ac (Activation)       (None, 12, 12, 1088) 0           block17_3[0][0]                  
__________________________________________________________________________________________________
conv2d_465 (Conv2D)             (None, 12, 12, 128)  139264      block17_3_ac[0][0]               
__________________________________________________________________________________________________
batch_normalization_465 (BatchN (None, 12, 12, 128)  384         conv2d_465[0][0]                 
__________________________________________________________________________________________________
activation_465 (Activation)     (None, 12, 12, 128)  0           batch_normalization_465[0][0]    
__________________________________________________________________________________________________
conv2d_466 (Conv2D)             (None, 12, 12, 160)  143360      activation_465[0][0]             
__________________________________________________________________________________________________
batch_normalization_466 (BatchN (None, 12, 12, 160)  480         conv2d_466[0][0]                 
__________________________________________________________________________________________________
activation_466 (Activation)     (None, 12, 12, 160)  0           batch_normalization_466[0][0]    
__________________________________________________________________________________________________
conv2d_464 (Conv2D)             (None, 12, 12, 192)  208896      block17_3_ac[0][0]               
__________________________________________________________________________________________________
conv2d_467 (Conv2D)             (None, 12, 12, 192)  215040      activation_466[0][0]             
__________________________________________________________________________________________________
batch_normalization_464 (BatchN (None, 12, 12, 192)  576         conv2d_464[0][0]                 
__________________________________________________________________________________________________
batch_normalization_467 (BatchN (None, 12, 12, 192)  576         conv2d_467[0][0]                 
__________________________________________________________________________________________________
activation_464 (Activation)     (None, 12, 12, 192)  0           batch_normalization_464[0][0]    
__________________________________________________________________________________________________
activation_467 (Activation)     (None, 12, 12, 192)  0           batch_normalization_467[0][0]    
__________________________________________________________________________________________________
block17_4_mixed (Concatenate)   (None, 12, 12, 384)  0           activation_464[0][0]             
                                                                 activation_467[0][0]             
__________________________________________________________________________________________________
block17_4_conv (Conv2D)         (None, 12, 12, 1088) 418880      block17_4_mixed[0][0]            
__________________________________________________________________________________________________
block17_4 (Lambda)              (None, 12, 12, 1088) 0           block17_3_ac[0][0]               
                                                                 block17_4_conv[0][0]             
__________________________________________________________________________________________________
block17_4_ac (Activation)       (None, 12, 12, 1088) 0           block17_4[0][0]                  
__________________________________________________________________________________________________
conv2d_469 (Conv2D)             (None, 12, 12, 128)  139264      block17_4_ac[0][0]               
__________________________________________________________________________________________________
batch_normalization_469 (BatchN (None, 12, 12, 128)  384         conv2d_469[0][0]                 
__________________________________________________________________________________________________
activation_469 (Activation)     (None, 12, 12, 128)  0           batch_normalization_469[0][0]    
__________________________________________________________________________________________________
conv2d_470 (Conv2D)             (None, 12, 12, 160)  143360      activation_469[0][0]             
__________________________________________________________________________________________________
batch_normalization_470 (BatchN (None, 12, 12, 160)  480         conv2d_470[0][0]                 
__________________________________________________________________________________________________
activation_470 (Activation)     (None, 12, 12, 160)  0           batch_normalization_470[0][0]    
__________________________________________________________________________________________________
conv2d_468 (Conv2D)             (None, 12, 12, 192)  208896      block17_4_ac[0][0]               
__________________________________________________________________________________________________
conv2d_471 (Conv2D)             (None, 12, 12, 192)  215040      activation_470[0][0]             
__________________________________________________________________________________________________
batch_normalization_468 (BatchN (None, 12, 12, 192)  576         conv2d_468[0][0]                 
__________________________________________________________________________________________________
batch_normalization_471 (BatchN (None, 12, 12, 192)  576         conv2d_471[0][0]                 
__________________________________________________________________________________________________
activation_468 (Activation)     (None, 12, 12, 192)  0           batch_normalization_468[0][0]    
__________________________________________________________________________________________________
activation_471 (Activation)     (None, 12, 12, 192)  0           batch_normalization_471[0][0]    
__________________________________________________________________________________________________
block17_5_mixed (Concatenate)   (None, 12, 12, 384)  0           activation_468[0][0]             
                                                                 activation_471[0][0]             
__________________________________________________________________________________________________
block17_5_conv (Conv2D)         (None, 12, 12, 1088) 418880      block17_5_mixed[0][0]            
__________________________________________________________________________________________________
block17_5 (Lambda)              (None, 12, 12, 1088) 0           block17_4_ac[0][0]               
                                                                 block17_5_conv[0][0]             
__________________________________________________________________________________________________
block17_5_ac (Activation)       (None, 12, 12, 1088) 0           block17_5[0][0]                  
__________________________________________________________________________________________________
conv2d_473 (Conv2D)             (None, 12, 12, 128)  139264      block17_5_ac[0][0]               
__________________________________________________________________________________________________
batch_normalization_473 (BatchN (None, 12, 12, 128)  384         conv2d_473[0][0]                 
__________________________________________________________________________________________________
activation_473 (Activation)     (None, 12, 12, 128)  0           batch_normalization_473[0][0]    
__________________________________________________________________________________________________
conv2d_474 (Conv2D)             (None, 12, 12, 160)  143360      activation_473[0][0]             
__________________________________________________________________________________________________
batch_normalization_474 (BatchN (None, 12, 12, 160)  480         conv2d_474[0][0]                 
__________________________________________________________________________________________________
activation_474 (Activation)     (None, 12, 12, 160)  0           batch_normalization_474[0][0]    
__________________________________________________________________________________________________
conv2d_472 (Conv2D)             (None, 12, 12, 192)  208896      block17_5_ac[0][0]               
__________________________________________________________________________________________________
conv2d_475 (Conv2D)             (None, 12, 12, 192)  215040      activation_474[0][0]             
__________________________________________________________________________________________________
batch_normalization_472 (BatchN (None, 12, 12, 192)  576         conv2d_472[0][0]                 
__________________________________________________________________________________________________
batch_normalization_475 (BatchN (None, 12, 12, 192)  576         conv2d_475[0][0]                 
__________________________________________________________________________________________________
activation_472 (Activation)     (None, 12, 12, 192)  0           batch_normalization_472[0][0]    
__________________________________________________________________________________________________
activation_475 (Activation)     (None, 12, 12, 192)  0           batch_normalization_475[0][0]    
__________________________________________________________________________________________________
block17_6_mixed (Concatenate)   (None, 12, 12, 384)  0           activation_472[0][0]             
                                                                 activation_475[0][0]             
__________________________________________________________________________________________________
block17_6_conv (Conv2D)         (None, 12, 12, 1088) 418880      block17_6_mixed[0][0]            
__________________________________________________________________________________________________
block17_6 (Lambda)              (None, 12, 12, 1088) 0           block17_5_ac[0][0]               
                                                                 block17_6_conv[0][0]             
__________________________________________________________________________________________________
block17_6_ac (Activation)       (None, 12, 12, 1088) 0           block17_6[0][0]                  
__________________________________________________________________________________________________
conv2d_477 (Conv2D)             (None, 12, 12, 128)  139264      block17_6_ac[0][0]               
__________________________________________________________________________________________________
batch_normalization_477 (BatchN (None, 12, 12, 128)  384         conv2d_477[0][0]                 
__________________________________________________________________________________________________
activation_477 (Activation)     (None, 12, 12, 128)  0           batch_normalization_477[0][0]    
__________________________________________________________________________________________________
conv2d_478 (Conv2D)             (None, 12, 12, 160)  143360      activation_477[0][0]             
__________________________________________________________________________________________________
batch_normalization_478 (BatchN (None, 12, 12, 160)  480         conv2d_478[0][0]                 
__________________________________________________________________________________________________
activation_478 (Activation)     (None, 12, 12, 160)  0           batch_normalization_478[0][0]    
__________________________________________________________________________________________________
conv2d_476 (Conv2D)             (None, 12, 12, 192)  208896      block17_6_ac[0][0]               
__________________________________________________________________________________________________
conv2d_479 (Conv2D)             (None, 12, 12, 192)  215040      activation_478[0][0]             
__________________________________________________________________________________________________
batch_normalization_476 (BatchN (None, 12, 12, 192)  576         conv2d_476[0][0]                 
__________________________________________________________________________________________________
batch_normalization_479 (BatchN (None, 12, 12, 192)  576         conv2d_479[0][0]                 
__________________________________________________________________________________________________
activation_476 (Activation)     (None, 12, 12, 192)  0           batch_normalization_476[0][0]    
__________________________________________________________________________________________________
activation_479 (Activation)     (None, 12, 12, 192)  0           batch_normalization_479[0][0]    
__________________________________________________________________________________________________
block17_7_mixed (Concatenate)   (None, 12, 12, 384)  0           activation_476[0][0]             
                                                                 activation_479[0][0]             
__________________________________________________________________________________________________
block17_7_conv (Conv2D)         (None, 12, 12, 1088) 418880      block17_7_mixed[0][0]            
__________________________________________________________________________________________________
block17_7 (Lambda)              (None, 12, 12, 1088) 0           block17_6_ac[0][0]               
                                                                 block17_7_conv[0][0]             
__________________________________________________________________________________________________
block17_7_ac (Activation)       (None, 12, 12, 1088) 0           block17_7[0][0]                  
__________________________________________________________________________________________________
conv2d_481 (Conv2D)             (None, 12, 12, 128)  139264      block17_7_ac[0][0]               
__________________________________________________________________________________________________
batch_normalization_481 (BatchN (None, 12, 12, 128)  384         conv2d_481[0][0]                 
__________________________________________________________________________________________________
activation_481 (Activation)     (None, 12, 12, 128)  0           batch_normalization_481[0][0]    
__________________________________________________________________________________________________
conv2d_482 (Conv2D)             (None, 12, 12, 160)  143360      activation_481[0][0]             
__________________________________________________________________________________________________
batch_normalization_482 (BatchN (None, 12, 12, 160)  480         conv2d_482[0][0]                 
__________________________________________________________________________________________________
activation_482 (Activation)     (None, 12, 12, 160)  0           batch_normalization_482[0][0]    
__________________________________________________________________________________________________
conv2d_480 (Conv2D)             (None, 12, 12, 192)  208896      block17_7_ac[0][0]               
__________________________________________________________________________________________________
conv2d_483 (Conv2D)             (None, 12, 12, 192)  215040      activation_482[0][0]             
__________________________________________________________________________________________________
batch_normalization_480 (BatchN (None, 12, 12, 192)  576         conv2d_480[0][0]                 
__________________________________________________________________________________________________
batch_normalization_483 (BatchN (None, 12, 12, 192)  576         conv2d_483[0][0]                 
__________________________________________________________________________________________________
activation_480 (Activation)     (None, 12, 12, 192)  0           batch_normalization_480[0][0]    
__________________________________________________________________________________________________
activation_483 (Activation)     (None, 12, 12, 192)  0           batch_normalization_483[0][0]    
__________________________________________________________________________________________________
block17_8_mixed (Concatenate)   (None, 12, 12, 384)  0           activation_480[0][0]             
                                                                 activation_483[0][0]             
__________________________________________________________________________________________________
block17_8_conv (Conv2D)         (None, 12, 12, 1088) 418880      block17_8_mixed[0][0]            
__________________________________________________________________________________________________
block17_8 (Lambda)              (None, 12, 12, 1088) 0           block17_7_ac[0][0]               
                                                                 block17_8_conv[0][0]             
__________________________________________________________________________________________________
block17_8_ac (Activation)       (None, 12, 12, 1088) 0           block17_8[0][0]                  
__________________________________________________________________________________________________
conv2d_485 (Conv2D)             (None, 12, 12, 128)  139264      block17_8_ac[0][0]               
__________________________________________________________________________________________________
batch_normalization_485 (BatchN (None, 12, 12, 128)  384         conv2d_485[0][0]                 
__________________________________________________________________________________________________
activation_485 (Activation)     (None, 12, 12, 128)  0           batch_normalization_485[0][0]    
__________________________________________________________________________________________________
conv2d_486 (Conv2D)             (None, 12, 12, 160)  143360      activation_485[0][0]             
__________________________________________________________________________________________________
batch_normalization_486 (BatchN (None, 12, 12, 160)  480         conv2d_486[0][0]                 
__________________________________________________________________________________________________
activation_486 (Activation)     (None, 12, 12, 160)  0           batch_normalization_486[0][0]    
__________________________________________________________________________________________________
conv2d_484 (Conv2D)             (None, 12, 12, 192)  208896      block17_8_ac[0][0]               
__________________________________________________________________________________________________
conv2d_487 (Conv2D)             (None, 12, 12, 192)  215040      activation_486[0][0]             
__________________________________________________________________________________________________
batch_normalization_484 (BatchN (None, 12, 12, 192)  576         conv2d_484[0][0]                 
__________________________________________________________________________________________________
batch_normalization_487 (BatchN (None, 12, 12, 192)  576         conv2d_487[0][0]                 
__________________________________________________________________________________________________
activation_484 (Activation)     (None, 12, 12, 192)  0           batch_normalization_484[0][0]    
__________________________________________________________________________________________________
activation_487 (Activation)     (None, 12, 12, 192)  0           batch_normalization_487[0][0]    
__________________________________________________________________________________________________
block17_9_mixed (Concatenate)   (None, 12, 12, 384)  0           activation_484[0][0]             
                                                                 activation_487[0][0]             
__________________________________________________________________________________________________
block17_9_conv (Conv2D)         (None, 12, 12, 1088) 418880      block17_9_mixed[0][0]            
__________________________________________________________________________________________________
block17_9 (Lambda)              (None, 12, 12, 1088) 0           block17_8_ac[0][0]               
                                                                 block17_9_conv[0][0]             
__________________________________________________________________________________________________
block17_9_ac (Activation)       (None, 12, 12, 1088) 0           block17_9[0][0]                  
__________________________________________________________________________________________________
conv2d_489 (Conv2D)             (None, 12, 12, 128)  139264      block17_9_ac[0][0]               
__________________________________________________________________________________________________
batch_normalization_489 (BatchN (None, 12, 12, 128)  384         conv2d_489[0][0]                 
__________________________________________________________________________________________________
activation_489 (Activation)     (None, 12, 12, 128)  0           batch_normalization_489[0][0]    
__________________________________________________________________________________________________
conv2d_490 (Conv2D)             (None, 12, 12, 160)  143360      activation_489[0][0]             
__________________________________________________________________________________________________
batch_normalization_490 (BatchN (None, 12, 12, 160)  480         conv2d_490[0][0]                 
__________________________________________________________________________________________________
activation_490 (Activation)     (None, 12, 12, 160)  0           batch_normalization_490[0][0]    
__________________________________________________________________________________________________
conv2d_488 (Conv2D)             (None, 12, 12, 192)  208896      block17_9_ac[0][0]               
__________________________________________________________________________________________________
conv2d_491 (Conv2D)             (None, 12, 12, 192)  215040      activation_490[0][0]             
__________________________________________________________________________________________________
batch_normalization_488 (BatchN (None, 12, 12, 192)  576         conv2d_488[0][0]                 
__________________________________________________________________________________________________
batch_normalization_491 (BatchN (None, 12, 12, 192)  576         conv2d_491[0][0]                 
__________________________________________________________________________________________________
activation_488 (Activation)     (None, 12, 12, 192)  0           batch_normalization_488[0][0]    
__________________________________________________________________________________________________
activation_491 (Activation)     (None, 12, 12, 192)  0           batch_normalization_491[0][0]    
__________________________________________________________________________________________________
block17_10_mixed (Concatenate)  (None, 12, 12, 384)  0           activation_488[0][0]             
                                                                 activation_491[0][0]             
__________________________________________________________________________________________________
block17_10_conv (Conv2D)        (None, 12, 12, 1088) 418880      block17_10_mixed[0][0]           
__________________________________________________________________________________________________
block17_10 (Lambda)             (None, 12, 12, 1088) 0           block17_9_ac[0][0]               
                                                                 block17_10_conv[0][0]            
__________________________________________________________________________________________________
block17_10_ac (Activation)      (None, 12, 12, 1088) 0           block17_10[0][0]                 
__________________________________________________________________________________________________
conv2d_493 (Conv2D)             (None, 12, 12, 128)  139264      block17_10_ac[0][0]              
__________________________________________________________________________________________________
batch_normalization_493 (BatchN (None, 12, 12, 128)  384         conv2d_493[0][0]                 
__________________________________________________________________________________________________
activation_493 (Activation)     (None, 12, 12, 128)  0           batch_normalization_493[0][0]    
__________________________________________________________________________________________________
conv2d_494 (Conv2D)             (None, 12, 12, 160)  143360      activation_493[0][0]             
__________________________________________________________________________________________________
batch_normalization_494 (BatchN (None, 12, 12, 160)  480         conv2d_494[0][0]                 
__________________________________________________________________________________________________
activation_494 (Activation)     (None, 12, 12, 160)  0           batch_normalization_494[0][0]    
__________________________________________________________________________________________________
conv2d_492 (Conv2D)             (None, 12, 12, 192)  208896      block17_10_ac[0][0]              
__________________________________________________________________________________________________
conv2d_495 (Conv2D)             (None, 12, 12, 192)  215040      activation_494[0][0]             
__________________________________________________________________________________________________
batch_normalization_492 (BatchN (None, 12, 12, 192)  576         conv2d_492[0][0]                 
__________________________________________________________________________________________________
batch_normalization_495 (BatchN (None, 12, 12, 192)  576         conv2d_495[0][0]                 
__________________________________________________________________________________________________
activation_492 (Activation)     (None, 12, 12, 192)  0           batch_normalization_492[0][0]    
__________________________________________________________________________________________________
activation_495 (Activation)     (None, 12, 12, 192)  0           batch_normalization_495[0][0]    
__________________________________________________________________________________________________
block17_11_mixed (Concatenate)  (None, 12, 12, 384)  0           activation_492[0][0]             
                                                                 activation_495[0][0]             
__________________________________________________________________________________________________
block17_11_conv (Conv2D)        (None, 12, 12, 1088) 418880      block17_11_mixed[0][0]           
__________________________________________________________________________________________________
block17_11 (Lambda)             (None, 12, 12, 1088) 0           block17_10_ac[0][0]              
                                                                 block17_11_conv[0][0]            
__________________________________________________________________________________________________
block17_11_ac (Activation)      (None, 12, 12, 1088) 0           block17_11[0][0]                 
__________________________________________________________________________________________________
conv2d_497 (Conv2D)             (None, 12, 12, 128)  139264      block17_11_ac[0][0]              
__________________________________________________________________________________________________
batch_normalization_497 (BatchN (None, 12, 12, 128)  384         conv2d_497[0][0]                 
__________________________________________________________________________________________________
activation_497 (Activation)     (None, 12, 12, 128)  0           batch_normalization_497[0][0]    
__________________________________________________________________________________________________
conv2d_498 (Conv2D)             (None, 12, 12, 160)  143360      activation_497[0][0]             
__________________________________________________________________________________________________
batch_normalization_498 (BatchN (None, 12, 12, 160)  480         conv2d_498[0][0]                 
__________________________________________________________________________________________________
activation_498 (Activation)     (None, 12, 12, 160)  0           batch_normalization_498[0][0]    
__________________________________________________________________________________________________
conv2d_496 (Conv2D)             (None, 12, 12, 192)  208896      block17_11_ac[0][0]              
__________________________________________________________________________________________________
conv2d_499 (Conv2D)             (None, 12, 12, 192)  215040      activation_498[0][0]             
__________________________________________________________________________________________________
batch_normalization_496 (BatchN (None, 12, 12, 192)  576         conv2d_496[0][0]                 
__________________________________________________________________________________________________
batch_normalization_499 (BatchN (None, 12, 12, 192)  576         conv2d_499[0][0]                 
__________________________________________________________________________________________________
activation_496 (Activation)     (None, 12, 12, 192)  0           batch_normalization_496[0][0]    
__________________________________________________________________________________________________
activation_499 (Activation)     (None, 12, 12, 192)  0           batch_normalization_499[0][0]    
__________________________________________________________________________________________________
block17_12_mixed (Concatenate)  (None, 12, 12, 384)  0           activation_496[0][0]             
                                                                 activation_499[0][0]             
__________________________________________________________________________________________________
block17_12_conv (Conv2D)        (None, 12, 12, 1088) 418880      block17_12_mixed[0][0]           
__________________________________________________________________________________________________
block17_12 (Lambda)             (None, 12, 12, 1088) 0           block17_11_ac[0][0]              
                                                                 block17_12_conv[0][0]            
__________________________________________________________________________________________________
block17_12_ac (Activation)      (None, 12, 12, 1088) 0           block17_12[0][0]                 
__________________________________________________________________________________________________
conv2d_501 (Conv2D)             (None, 12, 12, 128)  139264      block17_12_ac[0][0]              
__________________________________________________________________________________________________
batch_normalization_501 (BatchN (None, 12, 12, 128)  384         conv2d_501[0][0]                 
__________________________________________________________________________________________________
activation_501 (Activation)     (None, 12, 12, 128)  0           batch_normalization_501[0][0]    
__________________________________________________________________________________________________
conv2d_502 (Conv2D)             (None, 12, 12, 160)  143360      activation_501[0][0]             
__________________________________________________________________________________________________
batch_normalization_502 (BatchN (None, 12, 12, 160)  480         conv2d_502[0][0]                 
__________________________________________________________________________________________________
activation_502 (Activation)     (None, 12, 12, 160)  0           batch_normalization_502[0][0]    
__________________________________________________________________________________________________
conv2d_500 (Conv2D)             (None, 12, 12, 192)  208896      block17_12_ac[0][0]              
__________________________________________________________________________________________________
conv2d_503 (Conv2D)             (None, 12, 12, 192)  215040      activation_502[0][0]             
__________________________________________________________________________________________________
batch_normalization_500 (BatchN (None, 12, 12, 192)  576         conv2d_500[0][0]                 
__________________________________________________________________________________________________
batch_normalization_503 (BatchN (None, 12, 12, 192)  576         conv2d_503[0][0]                 
__________________________________________________________________________________________________
activation_500 (Activation)     (None, 12, 12, 192)  0           batch_normalization_500[0][0]    
__________________________________________________________________________________________________
activation_503 (Activation)     (None, 12, 12, 192)  0           batch_normalization_503[0][0]    
__________________________________________________________________________________________________
block17_13_mixed (Concatenate)  (None, 12, 12, 384)  0           activation_500[0][0]             
                                                                 activation_503[0][0]             
__________________________________________________________________________________________________
block17_13_conv (Conv2D)        (None, 12, 12, 1088) 418880      block17_13_mixed[0][0]           
__________________________________________________________________________________________________
block17_13 (Lambda)             (None, 12, 12, 1088) 0           block17_12_ac[0][0]              
                                                                 block17_13_conv[0][0]            
__________________________________________________________________________________________________
block17_13_ac (Activation)      (None, 12, 12, 1088) 0           block17_13[0][0]                 
__________________________________________________________________________________________________
conv2d_505 (Conv2D)             (None, 12, 12, 128)  139264      block17_13_ac[0][0]              
__________________________________________________________________________________________________
batch_normalization_505 (BatchN (None, 12, 12, 128)  384         conv2d_505[0][0]                 
__________________________________________________________________________________________________
activation_505 (Activation)     (None, 12, 12, 128)  0           batch_normalization_505[0][0]    
__________________________________________________________________________________________________
conv2d_506 (Conv2D)             (None, 12, 12, 160)  143360      activation_505[0][0]             
__________________________________________________________________________________________________
batch_normalization_506 (BatchN (None, 12, 12, 160)  480         conv2d_506[0][0]                 
__________________________________________________________________________________________________
activation_506 (Activation)     (None, 12, 12, 160)  0           batch_normalization_506[0][0]    
__________________________________________________________________________________________________
conv2d_504 (Conv2D)             (None, 12, 12, 192)  208896      block17_13_ac[0][0]              
__________________________________________________________________________________________________
conv2d_507 (Conv2D)             (None, 12, 12, 192)  215040      activation_506[0][0]             
__________________________________________________________________________________________________
batch_normalization_504 (BatchN (None, 12, 12, 192)  576         conv2d_504[0][0]                 
__________________________________________________________________________________________________
batch_normalization_507 (BatchN (None, 12, 12, 192)  576         conv2d_507[0][0]                 
__________________________________________________________________________________________________
activation_504 (Activation)     (None, 12, 12, 192)  0           batch_normalization_504[0][0]    
__________________________________________________________________________________________________
activation_507 (Activation)     (None, 12, 12, 192)  0           batch_normalization_507[0][0]    
__________________________________________________________________________________________________
block17_14_mixed (Concatenate)  (None, 12, 12, 384)  0           activation_504[0][0]             
                                                                 activation_507[0][0]             
__________________________________________________________________________________________________
block17_14_conv (Conv2D)        (None, 12, 12, 1088) 418880      block17_14_mixed[0][0]           
__________________________________________________________________________________________________
block17_14 (Lambda)             (None, 12, 12, 1088) 0           block17_13_ac[0][0]              
                                                                 block17_14_conv[0][0]            
__________________________________________________________________________________________________
block17_14_ac (Activation)      (None, 12, 12, 1088) 0           block17_14[0][0]                 
__________________________________________________________________________________________________
conv2d_509 (Conv2D)             (None, 12, 12, 128)  139264      block17_14_ac[0][0]              
__________________________________________________________________________________________________
batch_normalization_509 (BatchN (None, 12, 12, 128)  384         conv2d_509[0][0]                 
__________________________________________________________________________________________________
activation_509 (Activation)     (None, 12, 12, 128)  0           batch_normalization_509[0][0]    
__________________________________________________________________________________________________
conv2d_510 (Conv2D)             (None, 12, 12, 160)  143360      activation_509[0][0]             
__________________________________________________________________________________________________
batch_normalization_510 (BatchN (None, 12, 12, 160)  480         conv2d_510[0][0]                 
__________________________________________________________________________________________________
activation_510 (Activation)     (None, 12, 12, 160)  0           batch_normalization_510[0][0]    
__________________________________________________________________________________________________
conv2d_508 (Conv2D)             (None, 12, 12, 192)  208896      block17_14_ac[0][0]              
__________________________________________________________________________________________________
conv2d_511 (Conv2D)             (None, 12, 12, 192)  215040      activation_510[0][0]             
__________________________________________________________________________________________________
batch_normalization_508 (BatchN (None, 12, 12, 192)  576         conv2d_508[0][0]                 
__________________________________________________________________________________________________
batch_normalization_511 (BatchN (None, 12, 12, 192)  576         conv2d_511[0][0]                 
__________________________________________________________________________________________________
activation_508 (Activation)     (None, 12, 12, 192)  0           batch_normalization_508[0][0]    
__________________________________________________________________________________________________
activation_511 (Activation)     (None, 12, 12, 192)  0           batch_normalization_511[0][0]    
__________________________________________________________________________________________________
block17_15_mixed (Concatenate)  (None, 12, 12, 384)  0           activation_508[0][0]             
                                                                 activation_511[0][0]             
__________________________________________________________________________________________________
block17_15_conv (Conv2D)        (None, 12, 12, 1088) 418880      block17_15_mixed[0][0]           
__________________________________________________________________________________________________
block17_15 (Lambda)             (None, 12, 12, 1088) 0           block17_14_ac[0][0]              
                                                                 block17_15_conv[0][0]            
__________________________________________________________________________________________________
block17_15_ac (Activation)      (None, 12, 12, 1088) 0           block17_15[0][0]                 
__________________________________________________________________________________________________
conv2d_513 (Conv2D)             (None, 12, 12, 128)  139264      block17_15_ac[0][0]              
__________________________________________________________________________________________________
batch_normalization_513 (BatchN (None, 12, 12, 128)  384         conv2d_513[0][0]                 
__________________________________________________________________________________________________
activation_513 (Activation)     (None, 12, 12, 128)  0           batch_normalization_513[0][0]    
__________________________________________________________________________________________________
conv2d_514 (Conv2D)             (None, 12, 12, 160)  143360      activation_513[0][0]             
__________________________________________________________________________________________________
batch_normalization_514 (BatchN (None, 12, 12, 160)  480         conv2d_514[0][0]                 
__________________________________________________________________________________________________
activation_514 (Activation)     (None, 12, 12, 160)  0           batch_normalization_514[0][0]    
__________________________________________________________________________________________________
conv2d_512 (Conv2D)             (None, 12, 12, 192)  208896      block17_15_ac[0][0]              
__________________________________________________________________________________________________
conv2d_515 (Conv2D)             (None, 12, 12, 192)  215040      activation_514[0][0]             
__________________________________________________________________________________________________
batch_normalization_512 (BatchN (None, 12, 12, 192)  576         conv2d_512[0][0]                 
__________________________________________________________________________________________________
batch_normalization_515 (BatchN (None, 12, 12, 192)  576         conv2d_515[0][0]                 
__________________________________________________________________________________________________
activation_512 (Activation)     (None, 12, 12, 192)  0           batch_normalization_512[0][0]    
__________________________________________________________________________________________________
activation_515 (Activation)     (None, 12, 12, 192)  0           batch_normalization_515[0][0]    
__________________________________________________________________________________________________
block17_16_mixed (Concatenate)  (None, 12, 12, 384)  0           activation_512[0][0]             
                                                                 activation_515[0][0]             
__________________________________________________________________________________________________
block17_16_conv (Conv2D)        (None, 12, 12, 1088) 418880      block17_16_mixed[0][0]           
__________________________________________________________________________________________________
block17_16 (Lambda)             (None, 12, 12, 1088) 0           block17_15_ac[0][0]              
                                                                 block17_16_conv[0][0]            
__________________________________________________________________________________________________
block17_16_ac (Activation)      (None, 12, 12, 1088) 0           block17_16[0][0]                 
__________________________________________________________________________________________________
conv2d_517 (Conv2D)             (None, 12, 12, 128)  139264      block17_16_ac[0][0]              
__________________________________________________________________________________________________
batch_normalization_517 (BatchN (None, 12, 12, 128)  384         conv2d_517[0][0]                 
__________________________________________________________________________________________________
activation_517 (Activation)     (None, 12, 12, 128)  0           batch_normalization_517[0][0]    
__________________________________________________________________________________________________
conv2d_518 (Conv2D)             (None, 12, 12, 160)  143360      activation_517[0][0]             
__________________________________________________________________________________________________
batch_normalization_518 (BatchN (None, 12, 12, 160)  480         conv2d_518[0][0]                 
__________________________________________________________________________________________________
activation_518 (Activation)     (None, 12, 12, 160)  0           batch_normalization_518[0][0]    
__________________________________________________________________________________________________
conv2d_516 (Conv2D)             (None, 12, 12, 192)  208896      block17_16_ac[0][0]              
__________________________________________________________________________________________________
conv2d_519 (Conv2D)             (None, 12, 12, 192)  215040      activation_518[0][0]             
__________________________________________________________________________________________________
batch_normalization_516 (BatchN (None, 12, 12, 192)  576         conv2d_516[0][0]                 
__________________________________________________________________________________________________
batch_normalization_519 (BatchN (None, 12, 12, 192)  576         conv2d_519[0][0]                 
__________________________________________________________________________________________________
activation_516 (Activation)     (None, 12, 12, 192)  0           batch_normalization_516[0][0]    
__________________________________________________________________________________________________
activation_519 (Activation)     (None, 12, 12, 192)  0           batch_normalization_519[0][0]    
__________________________________________________________________________________________________
block17_17_mixed (Concatenate)  (None, 12, 12, 384)  0           activation_516[0][0]             
                                                                 activation_519[0][0]             
__________________________________________________________________________________________________
block17_17_conv (Conv2D)        (None, 12, 12, 1088) 418880      block17_17_mixed[0][0]           
__________________________________________________________________________________________________
block17_17 (Lambda)             (None, 12, 12, 1088) 0           block17_16_ac[0][0]              
                                                                 block17_17_conv[0][0]            
__________________________________________________________________________________________________
block17_17_ac (Activation)      (None, 12, 12, 1088) 0           block17_17[0][0]                 
__________________________________________________________________________________________________
conv2d_521 (Conv2D)             (None, 12, 12, 128)  139264      block17_17_ac[0][0]              
__________________________________________________________________________________________________
batch_normalization_521 (BatchN (None, 12, 12, 128)  384         conv2d_521[0][0]                 
__________________________________________________________________________________________________
activation_521 (Activation)     (None, 12, 12, 128)  0           batch_normalization_521[0][0]    
__________________________________________________________________________________________________
conv2d_522 (Conv2D)             (None, 12, 12, 160)  143360      activation_521[0][0]             
__________________________________________________________________________________________________
batch_normalization_522 (BatchN (None, 12, 12, 160)  480         conv2d_522[0][0]                 
__________________________________________________________________________________________________
activation_522 (Activation)     (None, 12, 12, 160)  0           batch_normalization_522[0][0]    
__________________________________________________________________________________________________
conv2d_520 (Conv2D)             (None, 12, 12, 192)  208896      block17_17_ac[0][0]              
__________________________________________________________________________________________________
conv2d_523 (Conv2D)             (None, 12, 12, 192)  215040      activation_522[0][0]             
__________________________________________________________________________________________________
batch_normalization_520 (BatchN (None, 12, 12, 192)  576         conv2d_520[0][0]                 
__________________________________________________________________________________________________
batch_normalization_523 (BatchN (None, 12, 12, 192)  576         conv2d_523[0][0]                 
__________________________________________________________________________________________________
activation_520 (Activation)     (None, 12, 12, 192)  0           batch_normalization_520[0][0]    
__________________________________________________________________________________________________
activation_523 (Activation)     (None, 12, 12, 192)  0           batch_normalization_523[0][0]    
__________________________________________________________________________________________________
block17_18_mixed (Concatenate)  (None, 12, 12, 384)  0           activation_520[0][0]             
                                                                 activation_523[0][0]             
__________________________________________________________________________________________________
block17_18_conv (Conv2D)        (None, 12, 12, 1088) 418880      block17_18_mixed[0][0]           
__________________________________________________________________________________________________
block17_18 (Lambda)             (None, 12, 12, 1088) 0           block17_17_ac[0][0]              
                                                                 block17_18_conv[0][0]            
__________________________________________________________________________________________________
block17_18_ac (Activation)      (None, 12, 12, 1088) 0           block17_18[0][0]                 
__________________________________________________________________________________________________
conv2d_525 (Conv2D)             (None, 12, 12, 128)  139264      block17_18_ac[0][0]              
__________________________________________________________________________________________________
batch_normalization_525 (BatchN (None, 12, 12, 128)  384         conv2d_525[0][0]                 
__________________________________________________________________________________________________
activation_525 (Activation)     (None, 12, 12, 128)  0           batch_normalization_525[0][0]    
__________________________________________________________________________________________________
conv2d_526 (Conv2D)             (None, 12, 12, 160)  143360      activation_525[0][0]             
__________________________________________________________________________________________________
batch_normalization_526 (BatchN (None, 12, 12, 160)  480         conv2d_526[0][0]                 
__________________________________________________________________________________________________
activation_526 (Activation)     (None, 12, 12, 160)  0           batch_normalization_526[0][0]    
__________________________________________________________________________________________________
conv2d_524 (Conv2D)             (None, 12, 12, 192)  208896      block17_18_ac[0][0]              
__________________________________________________________________________________________________
conv2d_527 (Conv2D)             (None, 12, 12, 192)  215040      activation_526[0][0]             
__________________________________________________________________________________________________
batch_normalization_524 (BatchN (None, 12, 12, 192)  576         conv2d_524[0][0]                 
__________________________________________________________________________________________________
batch_normalization_527 (BatchN (None, 12, 12, 192)  576         conv2d_527[0][0]                 
__________________________________________________________________________________________________
activation_524 (Activation)     (None, 12, 12, 192)  0           batch_normalization_524[0][0]    
__________________________________________________________________________________________________
activation_527 (Activation)     (None, 12, 12, 192)  0           batch_normalization_527[0][0]    
__________________________________________________________________________________________________
block17_19_mixed (Concatenate)  (None, 12, 12, 384)  0           activation_524[0][0]             
                                                                 activation_527[0][0]             
__________________________________________________________________________________________________
block17_19_conv (Conv2D)        (None, 12, 12, 1088) 418880      block17_19_mixed[0][0]           
__________________________________________________________________________________________________
block17_19 (Lambda)             (None, 12, 12, 1088) 0           block17_18_ac[0][0]              
                                                                 block17_19_conv[0][0]            
__________________________________________________________________________________________________
block17_19_ac (Activation)      (None, 12, 12, 1088) 0           block17_19[0][0]                 
__________________________________________________________________________________________________
conv2d_529 (Conv2D)             (None, 12, 12, 128)  139264      block17_19_ac[0][0]              
__________________________________________________________________________________________________
batch_normalization_529 (BatchN (None, 12, 12, 128)  384         conv2d_529[0][0]                 
__________________________________________________________________________________________________
activation_529 (Activation)     (None, 12, 12, 128)  0           batch_normalization_529[0][0]    
__________________________________________________________________________________________________
conv2d_530 (Conv2D)             (None, 12, 12, 160)  143360      activation_529[0][0]             
__________________________________________________________________________________________________
batch_normalization_530 (BatchN (None, 12, 12, 160)  480         conv2d_530[0][0]                 
__________________________________________________________________________________________________
activation_530 (Activation)     (None, 12, 12, 160)  0           batch_normalization_530[0][0]    
__________________________________________________________________________________________________
conv2d_528 (Conv2D)             (None, 12, 12, 192)  208896      block17_19_ac[0][0]              
__________________________________________________________________________________________________
conv2d_531 (Conv2D)             (None, 12, 12, 192)  215040      activation_530[0][0]             
__________________________________________________________________________________________________
batch_normalization_528 (BatchN (None, 12, 12, 192)  576         conv2d_528[0][0]                 
__________________________________________________________________________________________________
batch_normalization_531 (BatchN (None, 12, 12, 192)  576         conv2d_531[0][0]                 
__________________________________________________________________________________________________
activation_528 (Activation)     (None, 12, 12, 192)  0           batch_normalization_528[0][0]    
__________________________________________________________________________________________________
activation_531 (Activation)     (None, 12, 12, 192)  0           batch_normalization_531[0][0]    
__________________________________________________________________________________________________
block17_20_mixed (Concatenate)  (None, 12, 12, 384)  0           activation_528[0][0]             
                                                                 activation_531[0][0]             
__________________________________________________________________________________________________
block17_20_conv (Conv2D)        (None, 12, 12, 1088) 418880      block17_20_mixed[0][0]           
__________________________________________________________________________________________________
block17_20 (Lambda)             (None, 12, 12, 1088) 0           block17_19_ac[0][0]              
                                                                 block17_20_conv[0][0]            
__________________________________________________________________________________________________
block17_20_ac (Activation)      (None, 12, 12, 1088) 0           block17_20[0][0]                 
__________________________________________________________________________________________________
conv2d_536 (Conv2D)             (None, 12, 12, 256)  278528      block17_20_ac[0][0]              
__________________________________________________________________________________________________
batch_normalization_536 (BatchN (None, 12, 12, 256)  768         conv2d_536[0][0]                 
__________________________________________________________________________________________________
activation_536 (Activation)     (None, 12, 12, 256)  0           batch_normalization_536[0][0]    
__________________________________________________________________________________________________
conv2d_532 (Conv2D)             (None, 12, 12, 256)  278528      block17_20_ac[0][0]              
__________________________________________________________________________________________________
conv2d_534 (Conv2D)             (None, 12, 12, 256)  278528      block17_20_ac[0][0]              
__________________________________________________________________________________________________
conv2d_537 (Conv2D)             (None, 12, 12, 288)  663552      activation_536[0][0]             
__________________________________________________________________________________________________
batch_normalization_532 (BatchN (None, 12, 12, 256)  768         conv2d_532[0][0]                 
__________________________________________________________________________________________________
batch_normalization_534 (BatchN (None, 12, 12, 256)  768         conv2d_534[0][0]                 
__________________________________________________________________________________________________
batch_normalization_537 (BatchN (None, 12, 12, 288)  864         conv2d_537[0][0]                 
__________________________________________________________________________________________________
activation_532 (Activation)     (None, 12, 12, 256)  0           batch_normalization_532[0][0]    
__________________________________________________________________________________________________
activation_534 (Activation)     (None, 12, 12, 256)  0           batch_normalization_534[0][0]    
__________________________________________________________________________________________________
activation_537 (Activation)     (None, 12, 12, 288)  0           batch_normalization_537[0][0]    
__________________________________________________________________________________________________
conv2d_533 (Conv2D)             (None, 5, 5, 384)    884736      activation_532[0][0]             
__________________________________________________________________________________________________
conv2d_535 (Conv2D)             (None, 5, 5, 288)    663552      activation_534[0][0]             
__________________________________________________________________________________________________
conv2d_538 (Conv2D)             (None, 5, 5, 320)    829440      activation_537[0][0]             
__________________________________________________________________________________________________
batch_normalization_533 (BatchN (None, 5, 5, 384)    1152        conv2d_533[0][0]                 
__________________________________________________________________________________________________
batch_normalization_535 (BatchN (None, 5, 5, 288)    864         conv2d_535[0][0]                 
__________________________________________________________________________________________________
batch_normalization_538 (BatchN (None, 5, 5, 320)    960         conv2d_538[0][0]                 
__________________________________________________________________________________________________
activation_533 (Activation)     (None, 5, 5, 384)    0           batch_normalization_533[0][0]    
__________________________________________________________________________________________________
activation_535 (Activation)     (None, 5, 5, 288)    0           batch_normalization_535[0][0]    
__________________________________________________________________________________________________
activation_538 (Activation)     (None, 5, 5, 320)    0           batch_normalization_538[0][0]    
__________________________________________________________________________________________________
max_pooling2d_25 (MaxPooling2D) (None, 5, 5, 1088)   0           block17_20_ac[0][0]              
__________________________________________________________________________________________________
mixed_7a (Concatenate)          (None, 5, 5, 2080)   0           activation_533[0][0]             
                                                                 activation_535[0][0]             
                                                                 activation_538[0][0]             
                                                                 max_pooling2d_25[0][0]           
__________________________________________________________________________________________________
conv2d_540 (Conv2D)             (None, 5, 5, 192)    399360      mixed_7a[0][0]                   
__________________________________________________________________________________________________
batch_normalization_540 (BatchN (None, 5, 5, 192)    576         conv2d_540[0][0]                 
__________________________________________________________________________________________________
activation_540 (Activation)     (None, 5, 5, 192)    0           batch_normalization_540[0][0]    
__________________________________________________________________________________________________
conv2d_541 (Conv2D)             (None, 5, 5, 224)    129024      activation_540[0][0]             
__________________________________________________________________________________________________
batch_normalization_541 (BatchN (None, 5, 5, 224)    672         conv2d_541[0][0]                 
__________________________________________________________________________________________________
activation_541 (Activation)     (None, 5, 5, 224)    0           batch_normalization_541[0][0]    
__________________________________________________________________________________________________
conv2d_539 (Conv2D)             (None, 5, 5, 192)    399360      mixed_7a[0][0]                   
__________________________________________________________________________________________________
conv2d_542 (Conv2D)             (None, 5, 5, 256)    172032      activation_541[0][0]             
__________________________________________________________________________________________________
batch_normalization_539 (BatchN (None, 5, 5, 192)    576         conv2d_539[0][0]                 
__________________________________________________________________________________________________
batch_normalization_542 (BatchN (None, 5, 5, 256)    768         conv2d_542[0][0]                 
__________________________________________________________________________________________________
activation_539 (Activation)     (None, 5, 5, 192)    0           batch_normalization_539[0][0]    
__________________________________________________________________________________________________
activation_542 (Activation)     (None, 5, 5, 256)    0           batch_normalization_542[0][0]    
__________________________________________________________________________________________________
block8_1_mixed (Concatenate)    (None, 5, 5, 448)    0           activation_539[0][0]             
                                                                 activation_542[0][0]             
__________________________________________________________________________________________________
block8_1_conv (Conv2D)          (None, 5, 5, 2080)   933920      block8_1_mixed[0][0]             
__________________________________________________________________________________________________
block8_1 (Lambda)               (None, 5, 5, 2080)   0           mixed_7a[0][0]                   
                                                                 block8_1_conv[0][0]              
__________________________________________________________________________________________________
block8_1_ac (Activation)        (None, 5, 5, 2080)   0           block8_1[0][0]                   
__________________________________________________________________________________________________
conv2d_544 (Conv2D)             (None, 5, 5, 192)    399360      block8_1_ac[0][0]                
__________________________________________________________________________________________________
batch_normalization_544 (BatchN (None, 5, 5, 192)    576         conv2d_544[0][0]                 
__________________________________________________________________________________________________
activation_544 (Activation)     (None, 5, 5, 192)    0           batch_normalization_544[0][0]    
__________________________________________________________________________________________________
conv2d_545 (Conv2D)             (None, 5, 5, 224)    129024      activation_544[0][0]             
__________________________________________________________________________________________________
batch_normalization_545 (BatchN (None, 5, 5, 224)    672         conv2d_545[0][0]                 
__________________________________________________________________________________________________
activation_545 (Activation)     (None, 5, 5, 224)    0           batch_normalization_545[0][0]    
__________________________________________________________________________________________________
conv2d_543 (Conv2D)             (None, 5, 5, 192)    399360      block8_1_ac[0][0]                
__________________________________________________________________________________________________
conv2d_546 (Conv2D)             (None, 5, 5, 256)    172032      activation_545[0][0]             
__________________________________________________________________________________________________
batch_normalization_543 (BatchN (None, 5, 5, 192)    576         conv2d_543[0][0]                 
__________________________________________________________________________________________________
batch_normalization_546 (BatchN (None, 5, 5, 256)    768         conv2d_546[0][0]                 
__________________________________________________________________________________________________
activation_543 (Activation)     (None, 5, 5, 192)    0           batch_normalization_543[0][0]    
__________________________________________________________________________________________________
activation_546 (Activation)     (None, 5, 5, 256)    0           batch_normalization_546[0][0]    
__________________________________________________________________________________________________
block8_2_mixed (Concatenate)    (None, 5, 5, 448)    0           activation_543[0][0]             
                                                                 activation_546[0][0]             
__________________________________________________________________________________________________
block8_2_conv (Conv2D)          (None, 5, 5, 2080)   933920      block8_2_mixed[0][0]             
__________________________________________________________________________________________________
block8_2 (Lambda)               (None, 5, 5, 2080)   0           block8_1_ac[0][0]                
                                                                 block8_2_conv[0][0]              
__________________________________________________________________________________________________
block8_2_ac (Activation)        (None, 5, 5, 2080)   0           block8_2[0][0]                   
__________________________________________________________________________________________________
conv2d_548 (Conv2D)             (None, 5, 5, 192)    399360      block8_2_ac[0][0]                
__________________________________________________________________________________________________
batch_normalization_548 (BatchN (None, 5, 5, 192)    576         conv2d_548[0][0]                 
__________________________________________________________________________________________________
activation_548 (Activation)     (None, 5, 5, 192)    0           batch_normalization_548[0][0]    
__________________________________________________________________________________________________
conv2d_549 (Conv2D)             (None, 5, 5, 224)    129024      activation_548[0][0]             
__________________________________________________________________________________________________
batch_normalization_549 (BatchN (None, 5, 5, 224)    672         conv2d_549[0][0]                 
__________________________________________________________________________________________________
activation_549 (Activation)     (None, 5, 5, 224)    0           batch_normalization_549[0][0]    
__________________________________________________________________________________________________
conv2d_547 (Conv2D)             (None, 5, 5, 192)    399360      block8_2_ac[0][0]                
__________________________________________________________________________________________________
conv2d_550 (Conv2D)             (None, 5, 5, 256)    172032      activation_549[0][0]             
__________________________________________________________________________________________________
batch_normalization_547 (BatchN (None, 5, 5, 192)    576         conv2d_547[0][0]                 
__________________________________________________________________________________________________
batch_normalization_550 (BatchN (None, 5, 5, 256)    768         conv2d_550[0][0]                 
__________________________________________________________________________________________________
activation_547 (Activation)     (None, 5, 5, 192)    0           batch_normalization_547[0][0]    
__________________________________________________________________________________________________
activation_550 (Activation)     (None, 5, 5, 256)    0           batch_normalization_550[0][0]    
__________________________________________________________________________________________________
block8_3_mixed (Concatenate)    (None, 5, 5, 448)    0           activation_547[0][0]             
                                                                 activation_550[0][0]             
__________________________________________________________________________________________________
block8_3_conv (Conv2D)          (None, 5, 5, 2080)   933920      block8_3_mixed[0][0]             
__________________________________________________________________________________________________
block8_3 (Lambda)               (None, 5, 5, 2080)   0           block8_2_ac[0][0]                
                                                                 block8_3_conv[0][0]              
__________________________________________________________________________________________________
block8_3_ac (Activation)        (None, 5, 5, 2080)   0           block8_3[0][0]                   
__________________________________________________________________________________________________
conv2d_552 (Conv2D)             (None, 5, 5, 192)    399360      block8_3_ac[0][0]                
__________________________________________________________________________________________________
batch_normalization_552 (BatchN (None, 5, 5, 192)    576         conv2d_552[0][0]                 
__________________________________________________________________________________________________
activation_552 (Activation)     (None, 5, 5, 192)    0           batch_normalization_552[0][0]    
__________________________________________________________________________________________________
conv2d_553 (Conv2D)             (None, 5, 5, 224)    129024      activation_552[0][0]             
__________________________________________________________________________________________________
batch_normalization_553 (BatchN (None, 5, 5, 224)    672         conv2d_553[0][0]                 
__________________________________________________________________________________________________
activation_553 (Activation)     (None, 5, 5, 224)    0           batch_normalization_553[0][0]    
__________________________________________________________________________________________________
conv2d_551 (Conv2D)             (None, 5, 5, 192)    399360      block8_3_ac[0][0]                
__________________________________________________________________________________________________
conv2d_554 (Conv2D)             (None, 5, 5, 256)    172032      activation_553[0][0]             
__________________________________________________________________________________________________
batch_normalization_551 (BatchN (None, 5, 5, 192)    576         conv2d_551[0][0]                 
__________________________________________________________________________________________________
batch_normalization_554 (BatchN (None, 5, 5, 256)    768         conv2d_554[0][0]                 
__________________________________________________________________________________________________
activation_551 (Activation)     (None, 5, 5, 192)    0           batch_normalization_551[0][0]    
__________________________________________________________________________________________________
activation_554 (Activation)     (None, 5, 5, 256)    0           batch_normalization_554[0][0]    
__________________________________________________________________________________________________
block8_4_mixed (Concatenate)    (None, 5, 5, 448)    0           activation_551[0][0]             
                                                                 activation_554[0][0]             
__________________________________________________________________________________________________
block8_4_conv (Conv2D)          (None, 5, 5, 2080)   933920      block8_4_mixed[0][0]             
__________________________________________________________________________________________________
block8_4 (Lambda)               (None, 5, 5, 2080)   0           block8_3_ac[0][0]                
                                                                 block8_4_conv[0][0]              
__________________________________________________________________________________________________
block8_4_ac (Activation)        (None, 5, 5, 2080)   0           block8_4[0][0]                   
__________________________________________________________________________________________________
conv2d_556 (Conv2D)             (None, 5, 5, 192)    399360      block8_4_ac[0][0]                
__________________________________________________________________________________________________
batch_normalization_556 (BatchN (None, 5, 5, 192)    576         conv2d_556[0][0]                 
__________________________________________________________________________________________________
activation_556 (Activation)     (None, 5, 5, 192)    0           batch_normalization_556[0][0]    
__________________________________________________________________________________________________
conv2d_557 (Conv2D)             (None, 5, 5, 224)    129024      activation_556[0][0]             
__________________________________________________________________________________________________
batch_normalization_557 (BatchN (None, 5, 5, 224)    672         conv2d_557[0][0]                 
__________________________________________________________________________________________________
activation_557 (Activation)     (None, 5, 5, 224)    0           batch_normalization_557[0][0]    
__________________________________________________________________________________________________
conv2d_555 (Conv2D)             (None, 5, 5, 192)    399360      block8_4_ac[0][0]                
__________________________________________________________________________________________________
conv2d_558 (Conv2D)             (None, 5, 5, 256)    172032      activation_557[0][0]             
__________________________________________________________________________________________________
batch_normalization_555 (BatchN (None, 5, 5, 192)    576         conv2d_555[0][0]                 
__________________________________________________________________________________________________
batch_normalization_558 (BatchN (None, 5, 5, 256)    768         conv2d_558[0][0]                 
__________________________________________________________________________________________________
activation_555 (Activation)     (None, 5, 5, 192)    0           batch_normalization_555[0][0]    
__________________________________________________________________________________________________
activation_558 (Activation)     (None, 5, 5, 256)    0           batch_normalization_558[0][0]    
__________________________________________________________________________________________________
block8_5_mixed (Concatenate)    (None, 5, 5, 448)    0           activation_555[0][0]             
                                                                 activation_558[0][0]             
__________________________________________________________________________________________________
block8_5_conv (Conv2D)          (None, 5, 5, 2080)   933920      block8_5_mixed[0][0]             
__________________________________________________________________________________________________
block8_5 (Lambda)               (None, 5, 5, 2080)   0           block8_4_ac[0][0]                
                                                                 block8_5_conv[0][0]              
__________________________________________________________________________________________________
block8_5_ac (Activation)        (None, 5, 5, 2080)   0           block8_5[0][0]                   
__________________________________________________________________________________________________
conv2d_560 (Conv2D)             (None, 5, 5, 192)    399360      block8_5_ac[0][0]                
__________________________________________________________________________________________________
batch_normalization_560 (BatchN (None, 5, 5, 192)    576         conv2d_560[0][0]                 
__________________________________________________________________________________________________
activation_560 (Activation)     (None, 5, 5, 192)    0           batch_normalization_560[0][0]    
__________________________________________________________________________________________________
conv2d_561 (Conv2D)             (None, 5, 5, 224)    129024      activation_560[0][0]             
__________________________________________________________________________________________________
batch_normalization_561 (BatchN (None, 5, 5, 224)    672         conv2d_561[0][0]                 
__________________________________________________________________________________________________
activation_561 (Activation)     (None, 5, 5, 224)    0           batch_normalization_561[0][0]    
__________________________________________________________________________________________________
conv2d_559 (Conv2D)             (None, 5, 5, 192)    399360      block8_5_ac[0][0]                
__________________________________________________________________________________________________
conv2d_562 (Conv2D)             (None, 5, 5, 256)    172032      activation_561[0][0]             
__________________________________________________________________________________________________
batch_normalization_559 (BatchN (None, 5, 5, 192)    576         conv2d_559[0][0]                 
__________________________________________________________________________________________________
batch_normalization_562 (BatchN (None, 5, 5, 256)    768         conv2d_562[0][0]                 
__________________________________________________________________________________________________
activation_559 (Activation)     (None, 5, 5, 192)    0           batch_normalization_559[0][0]    
__________________________________________________________________________________________________
activation_562 (Activation)     (None, 5, 5, 256)    0           batch_normalization_562[0][0]    
__________________________________________________________________________________________________
block8_6_mixed (Concatenate)    (None, 5, 5, 448)    0           activation_559[0][0]             
                                                                 activation_562[0][0]             
__________________________________________________________________________________________________
block8_6_conv (Conv2D)          (None, 5, 5, 2080)   933920      block8_6_mixed[0][0]             
__________________________________________________________________________________________________
block8_6 (Lambda)               (None, 5, 5, 2080)   0           block8_5_ac[0][0]                
                                                                 block8_6_conv[0][0]              
__________________________________________________________________________________________________
block8_6_ac (Activation)        (None, 5, 5, 2080)   0           block8_6[0][0]                   
__________________________________________________________________________________________________
conv2d_564 (Conv2D)             (None, 5, 5, 192)    399360      block8_6_ac[0][0]                
__________________________________________________________________________________________________
batch_normalization_564 (BatchN (None, 5, 5, 192)    576         conv2d_564[0][0]                 
__________________________________________________________________________________________________
activation_564 (Activation)     (None, 5, 5, 192)    0           batch_normalization_564[0][0]    
__________________________________________________________________________________________________
conv2d_565 (Conv2D)             (None, 5, 5, 224)    129024      activation_564[0][0]             
__________________________________________________________________________________________________
batch_normalization_565 (BatchN (None, 5, 5, 224)    672         conv2d_565[0][0]                 
__________________________________________________________________________________________________
activation_565 (Activation)     (None, 5, 5, 224)    0           batch_normalization_565[0][0]    
__________________________________________________________________________________________________
conv2d_563 (Conv2D)             (None, 5, 5, 192)    399360      block8_6_ac[0][0]                
__________________________________________________________________________________________________
conv2d_566 (Conv2D)             (None, 5, 5, 256)    172032      activation_565[0][0]             
__________________________________________________________________________________________________
batch_normalization_563 (BatchN (None, 5, 5, 192)    576         conv2d_563[0][0]                 
__________________________________________________________________________________________________
batch_normalization_566 (BatchN (None, 5, 5, 256)    768         conv2d_566[0][0]                 
__________________________________________________________________________________________________
activation_563 (Activation)     (None, 5, 5, 192)    0           batch_normalization_563[0][0]    
__________________________________________________________________________________________________
activation_566 (Activation)     (None, 5, 5, 256)    0           batch_normalization_566[0][0]    
__________________________________________________________________________________________________
block8_7_mixed (Concatenate)    (None, 5, 5, 448)    0           activation_563[0][0]             
                                                                 activation_566[0][0]             
__________________________________________________________________________________________________
block8_7_conv (Conv2D)          (None, 5, 5, 2080)   933920      block8_7_mixed[0][0]             
__________________________________________________________________________________________________
block8_7 (Lambda)               (None, 5, 5, 2080)   0           block8_6_ac[0][0]                
                                                                 block8_7_conv[0][0]              
__________________________________________________________________________________________________
block8_7_ac (Activation)        (None, 5, 5, 2080)   0           block8_7[0][0]                   
__________________________________________________________________________________________________
conv2d_568 (Conv2D)             (None, 5, 5, 192)    399360      block8_7_ac[0][0]                
__________________________________________________________________________________________________
batch_normalization_568 (BatchN (None, 5, 5, 192)    576         conv2d_568[0][0]                 
__________________________________________________________________________________________________
activation_568 (Activation)     (None, 5, 5, 192)    0           batch_normalization_568[0][0]    
__________________________________________________________________________________________________
conv2d_569 (Conv2D)             (None, 5, 5, 224)    129024      activation_568[0][0]             
__________________________________________________________________________________________________
batch_normalization_569 (BatchN (None, 5, 5, 224)    672         conv2d_569[0][0]                 
__________________________________________________________________________________________________
activation_569 (Activation)     (None, 5, 5, 224)    0           batch_normalization_569[0][0]    
__________________________________________________________________________________________________
conv2d_567 (Conv2D)             (None, 5, 5, 192)    399360      block8_7_ac[0][0]                
__________________________________________________________________________________________________
conv2d_570 (Conv2D)             (None, 5, 5, 256)    172032      activation_569[0][0]             
__________________________________________________________________________________________________
batch_normalization_567 (BatchN (None, 5, 5, 192)    576         conv2d_567[0][0]                 
__________________________________________________________________________________________________
batch_normalization_570 (BatchN (None, 5, 5, 256)    768         conv2d_570[0][0]                 
__________________________________________________________________________________________________
activation_567 (Activation)     (None, 5, 5, 192)    0           batch_normalization_567[0][0]    
__________________________________________________________________________________________________
activation_570 (Activation)     (None, 5, 5, 256)    0           batch_normalization_570[0][0]    
__________________________________________________________________________________________________
block8_8_mixed (Concatenate)    (None, 5, 5, 448)    0           activation_567[0][0]             
                                                                 activation_570[0][0]             
__________________________________________________________________________________________________
block8_8_conv (Conv2D)          (None, 5, 5, 2080)   933920      block8_8_mixed[0][0]             
__________________________________________________________________________________________________
block8_8 (Lambda)               (None, 5, 5, 2080)   0           block8_7_ac[0][0]                
                                                                 block8_8_conv[0][0]              
__________________________________________________________________________________________________
block8_8_ac (Activation)        (None, 5, 5, 2080)   0           block8_8[0][0]                   
__________________________________________________________________________________________________
conv2d_572 (Conv2D)             (None, 5, 5, 192)    399360      block8_8_ac[0][0]                
__________________________________________________________________________________________________
batch_normalization_572 (BatchN (None, 5, 5, 192)    576         conv2d_572[0][0]                 
__________________________________________________________________________________________________
activation_572 (Activation)     (None, 5, 5, 192)    0           batch_normalization_572[0][0]    
__________________________________________________________________________________________________
conv2d_573 (Conv2D)             (None, 5, 5, 224)    129024      activation_572[0][0]             
__________________________________________________________________________________________________
batch_normalization_573 (BatchN (None, 5, 5, 224)    672         conv2d_573[0][0]                 
__________________________________________________________________________________________________
activation_573 (Activation)     (None, 5, 5, 224)    0           batch_normalization_573[0][0]    
__________________________________________________________________________________________________
conv2d_571 (Conv2D)             (None, 5, 5, 192)    399360      block8_8_ac[0][0]                
__________________________________________________________________________________________________
conv2d_574 (Conv2D)             (None, 5, 5, 256)    172032      activation_573[0][0]             
__________________________________________________________________________________________________
batch_normalization_571 (BatchN (None, 5, 5, 192)    576         conv2d_571[0][0]                 
__________________________________________________________________________________________________
batch_normalization_574 (BatchN (None, 5, 5, 256)    768         conv2d_574[0][0]                 
__________________________________________________________________________________________________
activation_571 (Activation)     (None, 5, 5, 192)    0           batch_normalization_571[0][0]    
__________________________________________________________________________________________________
activation_574 (Activation)     (None, 5, 5, 256)    0           batch_normalization_574[0][0]    
__________________________________________________________________________________________________
block8_9_mixed (Concatenate)    (None, 5, 5, 448)    0           activation_571[0][0]             
                                                                 activation_574[0][0]             
__________________________________________________________________________________________________
block8_9_conv (Conv2D)          (None, 5, 5, 2080)   933920      block8_9_mixed[0][0]             
__________________________________________________________________________________________________
block8_9 (Lambda)               (None, 5, 5, 2080)   0           block8_8_ac[0][0]                
                                                                 block8_9_conv[0][0]              
__________________________________________________________________________________________________
block8_9_ac (Activation)        (None, 5, 5, 2080)   0           block8_9[0][0]                   
__________________________________________________________________________________________________
conv2d_576 (Conv2D)             (None, 5, 5, 192)    399360      block8_9_ac[0][0]                
__________________________________________________________________________________________________
batch_normalization_576 (BatchN (None, 5, 5, 192)    576         conv2d_576[0][0]                 
__________________________________________________________________________________________________
activation_576 (Activation)     (None, 5, 5, 192)    0           batch_normalization_576[0][0]    
__________________________________________________________________________________________________
conv2d_577 (Conv2D)             (None, 5, 5, 224)    129024      activation_576[0][0]             
__________________________________________________________________________________________________
batch_normalization_577 (BatchN (None, 5, 5, 224)    672         conv2d_577[0][0]                 
__________________________________________________________________________________________________
activation_577 (Activation)     (None, 5, 5, 224)    0           batch_normalization_577[0][0]    
__________________________________________________________________________________________________
conv2d_575 (Conv2D)             (None, 5, 5, 192)    399360      block8_9_ac[0][0]                
__________________________________________________________________________________________________
conv2d_578 (Conv2D)             (None, 5, 5, 256)    172032      activation_577[0][0]             
__________________________________________________________________________________________________
batch_normalization_575 (BatchN (None, 5, 5, 192)    576         conv2d_575[0][0]                 
__________________________________________________________________________________________________
batch_normalization_578 (BatchN (None, 5, 5, 256)    768         conv2d_578[0][0]                 
__________________________________________________________________________________________________
activation_575 (Activation)     (None, 5, 5, 192)    0           batch_normalization_575[0][0]    
__________________________________________________________________________________________________
activation_578 (Activation)     (None, 5, 5, 256)    0           batch_normalization_578[0][0]    
__________________________________________________________________________________________________
block8_10_mixed (Concatenate)   (None, 5, 5, 448)    0           activation_575[0][0]             
                                                                 activation_578[0][0]             
__________________________________________________________________________________________________
block8_10_conv (Conv2D)         (None, 5, 5, 2080)   933920      block8_10_mixed[0][0]            
__________________________________________________________________________________________________
block8_10 (Lambda)              (None, 5, 5, 2080)   0           block8_9_ac[0][0]                
                                                                 block8_10_conv[0][0]             
__________________________________________________________________________________________________
conv_7b (Conv2D)                (None, 5, 5, 1536)   3194880     block8_10[0][0]                  
__________________________________________________________________________________________________
conv_7b_bn (BatchNormalization) (None, 5, 5, 1536)   4608        conv_7b[0][0]                    
__________________________________________________________________________________________________
conv_7b_ac (Activation)         (None, 5, 5, 1536)   0           conv_7b_bn[0][0]                 
__________________________________________________________________________________________________
global_average_pooling2d_4 (Glo (None, 1536)         0           conv_7b_ac[0][0]                 
==================================================================================================
Total params: 54,336,736
Trainable params: 54,276,192
Non-trainable params: 60,544
__________________________________________________________________________________________________
FC Model Summary
----------

Model: "model_5"
_________________________________________________________________
Layer (type)                 Output Shape              Param #   
=================================================================
input_13 (InputLayer)        [(None, 1536)]            0         
_________________________________________________________________
dense_5 (Dense)              (None, 3)                 4611      
=================================================================
Total params: 4,611
Trainable params: 4,611
Non-trainable params: 0
_________________________________________________________________

Train Metrics
------------

Classification Metrics
----------

              precision    recall  f1-score   support

      damage       0.99      0.99      0.99       154
        tape       0.94      0.96      0.95       105
…
